model/final_model.pt (torch, 17491 bytes, 6 tensors)

weight f4 [32, 12]
0.039671794 0.011231264 -0.11698154 -0.09258859 -0.06898366 0.13633165 -0.13138013 0.08013427
0.29639366 0.09328403 -0.05551568 -0.036230244 -0.23746243 0.055813037 -0.3131924 0.3305541
0.22241051 -0.20922054 -0.11773759 -0.07326645 -0.07780857 0.13346708 0.13888854 -0.2637322
-0.26786685 0.016912436 -0.020288302 0.34422085 -0.2813549 0.14514731 -0.19068749 -0.15149614
-0.1724499 -0.13795172 0.28021753 -0.008795035 0.14192803 -0.28685153 -0.2969306 0.23064213
-0.21051219 0.2207602 0.18188298 -0.09311129 0.20870875 -0.009250225 0.1375321 -0.34768417
0.1900998 0.31667772 0.0855082 -0.043343548 0.33967945 0.08406647 0.23652641 -0.14522973
0.046737507 0.17078155 0.17012548 0.05733712 0.12200171 0.18892716 0.24483368 -0.21187511
-0.07970191 0.24804097 -0.15756851 0.096044295 -0.06707433 0.18961972 -0.24915488 0.24126019
0.036225542 0.14735352 -0.040056497 0.07975386 -0.05282592 0.048121262 0.16703278 -0.028008893
0.35654384 -0.11186753 0.18750802 -0.2657444 -0.018956553 0.03280458 0.13169387 0.28702915
0.19685203 -0.17806476 -0.01431936 0.05952642 0.008996165 -0.3030869 -0.014439546 -0.14618507
0.11013576 -0.2543276 -0.16295734 0.075636886 0.09267593 -0.26456442 -0.2674665 -0.27692693
0.5780113 -0.041801136 -0.015320195 0.25526696 -0.27209756 0.054459304 0.14108345 0.01763147
0.26353496 0.26377383 -0.12583858 0.14010726 -0.049805366 0.28264996 -0.119860455 0.29616526
0.07667057 -0.1107931 0.19891122 0.36503953 -0.15399039 0.057672154 0.038306333 -0.1030237
-0.09742446 0.14432126 0.23848271 -0.2083279 -0.20199405 -0.28210196 0.108076796 -0.14440632
-0.14648102 -0.33501467 0.13191146 0.29568437 -0.25648466 -0.04850295 -0.15208215 -0.39892054
0.019763248 -0.14555159 -0.07882714 -0.114155635 -0.049371384 0.13876323 -0.014543368 0.26650426
-0.20239037 0.13291702 -0.015185706 -0.029591607 0.1296388 -0.18214309 -0.057127785 -0.29822418
0.30397245 0.045555156 -0.07894562 -0.14316529 -0.026530493 0.46389195 0.1885852 -0.0666241
-0.14445972 -0.10466212 -0.01251669 -0.3460894 0.026869945 0.0918183 -0.29720023 0.16415752
0.14020611 0.41013086 -0.23052962 0.340672 -0.1400745 0.30652517 0.18468872 0.20950487
0.31407234 -0.20719063 0.15316035 0.07561152 0.22396003 0.3126164 -0.25984788 0.046590764
0.18207751 -0.24295296 0.2327996 -0.19728947 -0.17461936 0.17095658 -0.12927867 -0.24555664
0.14474483 0.068131335 -0.052226577 0.19294864 0.29996815 -0.009492951 0.294027 0.09265828
-0.07824874 0.010786941 -0.2367389 0.040400587 0.27528313 0.29307142 0.02782734 0.058903836
-0.10526312 0.11993658 -0.026385002 -0.017640313 0.17248492 0.20109048 0.18892513 0.33269563
-0.3591455 -0.012630999 -0.04374698 0.10078518 -0.031378448 0.2399288 0.18590991 0.24271922
-0.09503896 0.20056555 -0.02615607 -0.018820224 0.23361152 0.20972459 -0.16880919 -0.05479941
0.18133797 -0.2360711 0.14548269 0.07048929 -0.038190395 0.18989481 -0.21312469 0.32561257
0.119156055 -0.3359659 -0.18092994 -0.13821545 0.088843465 -0.28848138 0.15409952 0.33729413
00000000: e47e 223d 5603 383c 0594 efbd 169f bdbd
00000010: 4e47 8dbd 869a 0b3e 8388 06be 701d a43d
00000020: e9c0 973e b30b bf3d 6964 63bd 2a66 14bd
00000030: 5a29 73be 369c 643d c15a a0be 633e a93e
00000040: 95bf 633e e93d 56be 6820 f1bd b80c 96bd
00000050: 195a 9fbd 98ab 083e cc38 0e3e e807 87be
00000060: d825 89be f38b 8a3c a733 a6bc b73d b03e
00000070: c00d 90be 7fa1 143e 9543 43be ce21 1bbe
00000080: b596 30be 3743 0dbe ac78 8f3e 0d19 10bc
00000090: 9555 113e 34de 92be 4a07 98be 732d 6c3e
000000a0: 8290 57be f60e 623e 883f 3a3e 22b1 bebd
000000b0: bfb7 553e 418e 17bc 37d5 0c3e a903 b2be
000000c0: 86a9 423e 9523 a23e ec1e af3d 0189 31bd
000000d0: 77ea ad3e 0b2b ac3d fb33 723e 1ab7 14be
000000e0: d46f 3f3d 5ce1 2e3e 6035 2e3e 54da 6a3d
000000f0: 08dc f93d 1f76 413e aeb5 7a3e caf5 58be
00000100: c13a a3bd 74fe 7d3e a459 21be dfb2 c43d
00000110: 445e 89bd ac2b 423e 7522 7fbe e90c 773e
00000120: 3c61 143d d7e3 163e 4812 24bd fe55 a33d
00000130: fe5f 58bd cd1a 453d a40a 2b3e e872 e5bc
00000140: ea8c b63e ce1a e5bd 1a02 403e a60f 88be
00000150: c64a 9bbc 185e 063d c2da 063e 7cf5 923e
00000160: 9493 493e 9c56 36be c09b 6abc fad1 733d
00000170: a764 133c 352e 9bbe d893 6cbc 8ab1 15be
00000180: db8e e13d 3a37 82be 4ade 26be 83e7 9a3d
00000190: e1cc bd3d fd74 87be 5ef1 88be 5ec9 8dbe
000001a0: 8cf8 133f ab37 2bbd 8e01 7bbc 5ab2 823e
000001b0: 5f50 8bbe b810 5f3d 2e78 103e df6f 903c
000001c0: 0eee 863e 5d0d 873e d4db 00be 4778 0f3e
000001d0: b600 4cbd 7fb7 903e 6679 f5bd f9a2 973e
000001e0: 7605 9d3d 7ee7 e2bd 62af 4b3e 76e6 ba3e
000001f0: a8af 1dbe a339 6c3d 1ae7 1c3d 17fe d2bd
00000200: 7a86 c7bd f4c8 133e d034 743e e953 55be
00000210: 87d7 4ebe ab6f 90be 5e57 dd3d 40df 13be
00000220: 1fff 15be 0b87 abbe cc13 073e f163 973e
00000230: f551 83be 08ab 46bd 6cbb 1bbe 503f ccbe
00000240: 89e6 a13c 7a0b 15be 2070 a1bd 6eca e9bd
00000250: a639 4abd f317 0e3e 4e47 6ebc 3f73 883e
00000260: 6c3f 4fbe 661b 083e 78cd 78bc 196a f2bc
00000270: 09c0 043e b883 3abe d3fe 69bd d7b0 98be
00000280: 47a2 9b3e 0b98 3a3d 3eae a1bd ec99 12be
00000290: 7a56 d9bc 3f83 ed3e 7b1c 413e 3772 88bd
000002a0: 40ed 13be 1859 d6bd ce12 4dbc a132 b1be
000002b0: 5c1e dc3c 3c0b bc3d a12a 98be e918 283e
000002c0: 3192 0f3e acfc d13e f50f 6cbe 8f6c ae3e
000002d0: b16f 0fbe def0 9c3e 0a1f 3d3e 7288 563e
000002e0: 17ce a03e c829 54be 11d6 1c3e 36da 9a3d
000002f0: c755 653e 420f a03e c80a 85be f5d5 3e3d
00000300: 8772 3a3e a9c8 78be 0563 6e3e 4006 4abe
00000310: 6bcf 32be 3e0f 2f3e a161 04be 3373 7bbe
00000320: fd37 143e 7188 8b3d 89eb 55bd 5494 453e
00000330: 6d95 993e 5388 1bbc b58a 963e a0c3 bd3d
00000340: e040 a0bd b6bb 303c af6b 72be 167b 253d
00000350: e9f1 8c3e 750d 963e 29f6 e33c 2645 713d
00000360: 3194 d7bd 4fa1 f53d 5c25 d8bc 6b82 90bc
00000370: e39f 303e aaea 4d3e 9775 413e 1557 aa3e
00000380: ebe1 b7be 40f2 4ebc 0930 33bd 7668 ce3d
00000390: b086 00bd e5af 753e 2b5f 3e3e 638b 783e
000003a0: c9a3 c2bd 0e61 4d3e 4145 d6bc df2c 9abc
000003b0: dc37 6f3e 0bc2 563e 51dc 2cbe 5975 60bd
000003c0: a9b0 393e 9fbc 71be 6af9 143e b05c 903d
000003d0: 886d 1cbd c973 423e 5c3d 5abe b1b6 a63e
000003e0: 1708 f43d b903 acbe b345 39be 5a88 0dbe
000003f0: 90f3 b53d d5b3 93be 44cc 1d3e d1b1 ac3e

bias f4 [32]
0.00046070313 -0.23087949 0.23354584 -0.12397664 0.15370922 0.13068362 0.19865718 0.15855606
-0.2345323 0.109668694 -0.013820447 -0.2704358 0.09266593 0.27888253 0.18070191 0.21496533
0.054967698 0.19489396 -0.074620046 -0.025512932 0.26867068 0.21123968 0.08177341 -0.13815555
0.13942347 -0.0980172 0.011073227 0.18220282 0.24000156 -0.13171495 -0.32092944 0.25622976
00000000: 878a f139 ac6b 6cbe a426 6f3e 77e7 fdbd
00000010: f365 1d3e edd1 053e ca6c 4b3e 855c 223e
00000020: 3c29 70be fb99 e03d 286f 62bc 9076 8abe
00000030: a3c7 bd3d b1c9 8e3e ec09 393e df1f 5c3e
00000040: cf25 613d 4892 473e 65d2 98bd 7f00 d1bc
00000050: 348f 893e 374f 583e d178 a73d a678 0dbe
00000060: 07c5 0e3e 3ebd c8bd 7b6c 353c 6093 3a3e
00000070: f8c2 753e 49e0 06be dd50 a4be 8c30 833e

weight f4 [32, 32]
-0.11551583 -0.0038878918 -0.038497567 0.16223286 0.03894879 0.0038475245 -0.12085516 0.04457447
-0.011650354 0.092658594 -0.090189554 0.071698874 0.11707543 -0.1139883 0.05779043 -0.15942436
-0.06781729 0.054277495 -0.1561717 0.029317468 0.071909875 -0.13390192 -0.008327484 0.06735252
0.13668673 -0.12621966 0.1548859 -0.009256646 0.009080291 0.15785094 -0.08347647 0.13872568
0.06478798 0.10935304 -0.1094333 -0.004971698 -0.011003393 0.20354602 -0.08283864 0.04006715
-0.09860155 -0.025383433 0.026019653 -0.1482109 0.060082573 0.12475668 0.32272688 -0.011872935
0.17315632 -0.040949125 0.02317643 -0.078461036 0.010842734 -0.020636283 0.049596522 -0.02212042
0.07490382 -0.038055036 0.020449584 -0.11542834 0.10423977 0.09690196 -0.050543264 -0.07949106
0.037675194 -0.0068089296 -0.14733586 -0.18427967 0.09853644 0.14345804 -0.13987404 -0.08088729
-0.119191706 0.039582238 0.057067048 -0.1626833 -0.15136276 0.105859846 0.23283033 0.03476118
-0.12309138 0.10574512 -0.06602856 0.13317543 0.1293967 0.022839416 -0.058465865 0.008198226
-0.08914228 -0.052562706 0.025244452 0.035687767 -0.017900307 0.12981854 -0.14171605 -0.011150582
-0.073992446 0.13366534 -0.19909695 0.24563342 -0.018034102 0.15906239 -0.04676937 0.0049963673
-0.26910844 -0.028079633 0.06775406 0.12763818 0.31177264 0.031603783 0.095334046 0.101512864
-0.39848554 -0.114899136 0.21482377 -0.06396004 -0.07108458 -0.059400104 0.07787215 -0.31174946
-0.17174603 -0.019335248 -0.09690899 -0.04195716 0.098751634 -0.07875115 -0.032341678 -0.1404792
-0.031241681 -0.06782157 -0.16394965 0.102019124 0.042545486 0.07317334 -0.20258884 0.07113436
0.05664722 -0.026572907 0.1498933 -0.10291705 0.043410797 -0.06902842 0.21231158 0.043845043
-0.019485323 0.11839179 0.13574906 -0.017470604 -0.18535554 -0.1509388 0.1453169 -0.045192767
-0.008408735 -0.10693111 -0.09187727 -0.0015294902 -0.050201815 0.008012383 -0.10045378 -0.030738069
0.18165202 0.0015174596 -0.15731493 -0.06784426 0.1184058 0.15034927 -0.017194 0.21461338
-0.032898135 -0.0062050517 0.1327933 -0.052842375 -0.036540333 0.1694191 0.05535137 0.049885504
-0.22181617 0.20379135 -0.15655115 0.15862241 0.021734545 -0.09454663 0.115593165 0.10760737
-0.07201404 0.1410981 -0.16276255 -0.14586532 0.22895999 -0.10865696 -0.18855831 -0.008333878
0.16114263 0.10304977 0.011697466 -0.055287313 0.093631364 0.08172874 0.06613045 0.0167596
0.09367503 -0.23309836 -0.052061785 0.047239684 -0.1109073 -0.009213454 -0.23202762 -0.12014261
-0.126237 0.049500085 -0.14785929 0.001040562 0.12495024 0.12393953 0.14618671 0.0005634322
-0.06015252 -0.047994632 0.023313265 0.06829761 0.13248543 0.038125426 -0.09504903 0.19134218
0.08905904 0.14562362 0.048078578 -0.1508948 0.0772938 0.012459449 -0.0126362145 0.0010529548
0.0013054142 0.058156412 -0.11027371 0.097172186 0.14003953 0.13865182 -0.08888067 0.14245695
-0.14129251 -0.012539663 -0.0112360185 0.07759847 0.02413606 0.021629998 -0.10078598 0.112391815
-0.068524465 0.05029868 0.101100445 0.044554226 -0.13937742 0.085745975 -0.0043472503 0.01594243
00000000: 9093 ecbd 00cc 7ebb a0af 1dbd 5f20 263e
00000010: c488 1f3d c026 7c3b e982 f7bd b893 363d
00000020: 20e1 3ebc cac3 bd3d 4db5 b8bd dcd6 923d
00000030: 3ec5 ef3d b372 e9bd a8b5 6c3d 2440 23be
00000040: cbe3 8abd 1452 5e3d 79eb 1fbe 302b f03c
00000050: 7c45 933d 961d 09be 0070 08bc 1ef0 893d
00000060: 9bf7 0b3e ba3f 01be 699a 1e3e 30a9 17bc
00000070: 80c5 143c ada3 213e b6f5 aabd 1b0e 0e3e
00000080: 8faf 843d 7df4 df3d 911e e0bd a0e9 a2bb
00000090: 9347 34bc 5e6e 503e 4ea7 a9bd 741d 243d
000000a0: 9cef c9bd ebf0 cfbc 2b27 d53c 99c4 17be
000000b0: 2519 763d 6e80 ff3d 753c a53e b386 42bc
000000c0: e44f 313e 45ba 27bd 7fdc bd3c 2eb0 a0bd
000000d0: b9a5 313c 6c0d a9bc b925 4b3d e235 b5bc
000000e0: 2d67 993d 99df 1bbd e385 a73c b265 ecbd
000000f0: a97b d53d 8974 c63d 7406 4fbd 35cc a2bd
00000100: 4e51 1a3d 711d dfbb 36df 16be cfb3 3cbe
00000110: 79cd c93d aae6 123e 243b 0fbe 3ca8 a5bd
00000120: c81a f4bd fc20 223d 23bf 693d 7396 26be
00000130: d7fe 1abe 0ccd d83d 136b 6e3e bd61 0e3d
00000140: 5517 fcbd e690 d83d fb39 87bd 245f 083e
00000150: 9280 043e ba19 bb3c e779 6fbd da51 063c
00000160: 3a90 b6bd fe4b 57bd 74cd ce3c 562d 123d
00000170: aaa3 92bc 27ef 043e 031e 11be eeb0 36bc
00000180: 5a89 97bd 91df 083e 12e0 4bbe 5487 7b3e
00000190: 41bc 93bc 40e1 223e 3d91 3fbd 91b8 a33b
000001a0: 95c8 89be 4207 e6bc a4c2 8a3d 95b3 023e
000001b0: aaa0 9f3e f872 013d 7f3e c33d fae5 cf3d
000001c0: 4c06 ccbe 3d50 ebbd c3fa 5b3e 7bfd 82bd
000001d0: cb94 91bd 864d 73bd 6f7b 9f3d a09d 9fbe
000001e0: 31de 2fbe f464 9ebc 3878 c6bd 45db 2bbd
000001f0: 4c3e ca3d 4848 a1bd b578 04bd c8d9 0fbe
00000200: 8eee ffbc 09e6 8abd 6be2 27be 67ef d03d
00000210: 2d44 2e3d e7db 953d 7373 4fbe e4ae 913d
00000220: ea06 683d 6daf d9bc a17d 193e 2dc6 d2bd
00000230: 85cf 313d c65e 8dbd 3568 593e dc96 333d
00000240: af9f 9fbc 6577 f23d cd01 0b3e 831e 8fbc
00000250: d8cd 3dbe b38f 1abe f4cd 143e 0d1c 39bd
00000260: cac4 09bc b3fe dabd 262a bcbd 2d79 c8ba
00000270: 6ba0 4dbd 5f46 033c b6ba cdbd 67ce fbbc
00000280: fd02 3a3e 7fe5 c63a 2a17 21be eef1 8abd
00000290: bd7e f23d 29f5 193e 6eda 8cbc 9cc3 5b3e
000002a0: 32c0 06bd bf53 cbbb f8fa 073e 3f71 58bd
000002b0: 51ab 15bd 337c 2d3e 1eb8 623d be54 4c3d
000002c0: c723 63be aeae 503e f24e 20be ea6d 223e
000002d0: a50c b23c aaa1 c1bd 1cbc ec3d 4161 dc3d
000002e0: 197c 93bd 057c 103e 3aab 26be b85d 15be
000002f0: 7d74 6a3e 8a87 debd 6e15 41be d18a 08bc
00000300: 9302 253e c20b d33d baa6 3f3c f374 62bd
00000310: cdc1 bf3d 6661 a73d 676f 873d 6e4b 893c
00000320: b2d8 bf3d 56b1 6ebe bd3e 55bd 667e 413d
00000330: 5e23 e3bd 07f4 16bc a698 6dbe 540d f6bd
00000340: 4644 01be 9ac0 4a3d 6d68 17be 7863 883a
00000350: e9e5 ff3d 02d4 fd3d f8b1 153e 4bb3 133a
00000360: 7d62 76bd 0596 44bd 76fb be3c 9edf 8b3d
00000370: 43aa 073e 6829 1c3d 11a9 c2bd 34ef 433e
00000380: 9664 b63d 5c1e 153e 0bee 443d 2b84 1abe
00000390: 364c 9e3d b722 4c3c 2008 4fbc 4d03 8a3a
000003a0: 6f1a ab3a 6b35 6e3d 2fd7 e1bd 3602 c73d
000003b0: 8666 0f3e befa 0d3e 1207 b6bd 3ce0 113e
000003c0: fcae 10be 2973 4dbc 4717 38bc f2eb 9e3d
000003d0: fdb8 c53c 6531 b13c e168 cebd ae2d e63d
000003e0: 8e56 8cbd fd05 4e3d c00d cf3d 7e7e 363d
000003f0: f4b8 0ebe 969b af3d 6173 8ebb b399 823c

weight f4 [32, 32]
-0.11223623 0.025744429 -0.18334486 0.28158158 0.00667115 0.16820115 0.19613422 -0.098972835
0.082720205 0.05532442 0.060284033 0.18224831 0.13723344 0.08378727 -0.15877883 0.09378315
0.011578559 -0.19516663 -0.1025203 -0.009415406 -0.05861244 0.119626254 -0.100947596 -0.048891466
-0.034860857 -0.1368313 0.08442644 0.24576628 0.017224427 -0.024887327 0.12504269 0.17975113
-0.14848828 0.18814823 0.120863155 -0.04830366 -0.104443416 -0.13486004 -0.004200067 0.006909883
-0.04541008 -0.084399 -0.057618722 -0.1727211 -0.04633447 0.2086779 -0.1639377 0.122690365
0.14306247 0.12728767 0.060562614 0.118553 -0.049620364 0.11837146 0.15068915 -0.06636565
0.12675807 -0.009784975 0.06193528 -0.14490795 -0.108135246 -0.01924775 0.038541555 -0.11127642
-0.06987159 -0.11409201 -0.022644166 0.47549775 -0.117372 -0.057683624 -0.011901965 0.07212432
-0.0026993304 -0.018951356 -0.16232158 0.21411322 0.040820714 0.03296485 -0.11530381 -0.05684661
-0.028974868 0.11410488 -0.029870184 0.018210616 0.0042430437 0.18845412 -0.071017236 0.16622625
0.06421653 -0.09025922 -0.016357133 0.20240621 -0.023529917 -0.022124965 0.18433574 0.03707094
-0.13001797 0.17355406 0.03821497 -0.25837085 -0.10062708 0.103456855 0.08596717 0.1435587
0.14094435 -0.0045514405 0.15831707 -0.044814967 -0.049839932 0.18245964 -0.14703327 0.23922315
0.14101765 0.2334419 -0.059687976 0.24046075 -0.18799163 -0.10335825 0.14435796 -0.099393986
0.22177781 -0.02983057 -0.05562945 -0.24100941 0.064815305 0.00020312621 0.11037244 0.14096774
-0.09387329 0.057248484 0.048389073 0.3094918 -0.090953596 0.17142643 0.007730734 0.061755963
0.14150588 -0.080475464 0.031578943 -0.09954645 -0.05887551 0.12499518 -0.0589199 -0.187851
0.019493684 0.079556614 -0.13624473 -0.24216615 -0.08779157 0.08263257 -0.03769325 0.12832448
0.0841284 -0.23968859 -0.066659056 0.18828058 -0.044132747 0.016335305 0.16144422 -0.10310771
0.0020735413 -0.056410614 0.16839635 0.1002253 0.14415495 0.09087506 0.14302284 -0.168234
0.042877674 -0.15192258 0.08163984 0.07850138 0.16276467 0.015422078 -0.06585896 -0.12796174
-0.117236994 -0.016035164 -0.13730708 -0.08706676 -0.061616346 0.1693449 -0.044004954 0.144547
0.03546793 -0.0781055 -0.14974844 -0.065375246 0.011851703 -0.10031715 0.07678292 0.005714583
-0.1539727 -0.03582551 -0.081167385 0.104238935 0.08842025 -0.19838792 0.12411387 -0.008274958
-0.02075018 -0.08970356 0.027467668 -0.0030916 0.06240698 -0.113816604 -0.022957623 0.013293901
0.12958948 -0.15091401 0.017798297 -0.14448838 -0.11058217 -0.15713069 0.14918299 -0.040506437
0.01222378 -0.11349375 0.13914473 -0.0015540795 -0.06427053 0.11240292 -0.1990893 0.1590011
-0.09402298 0.087825835 0.12285554 -0.064873114 0.07366837 -0.055227075 -0.13088462 -0.088338844
-0.13172576 -0.12364802 0.096216545 -0.0650784 0.048044775 0.26658425 0.15376516 0.1477549
0.14222081 -0.001365366 0.05288572 0.18263438 -0.13927132 0.08217525 0.027447684 -0.097230904
0.05394765 -0.0055588232 -0.054120056 -0.050554022 -0.09446883 0.10997815 -0.13170543 -0.027090618
00000000: 1cdc e5bd fbe5 d23c c1be 3bbe 762b 903e
00000010: aa99 da3b ec3c 2c3e 69d7 483e 45b2 cabd
00000020: 3669 a93d dc9b 623d 64ec 763d 4d9f 3a3e
00000030: ec86 0c3e a998 ab3d eb96 22be 6111 c03d
00000040: ffb3 3d3c c3d9 47be 2af6 d1bd 1343 1abc
00000050: 9913 70bd 9cfe f43d 9dbd cebd 6b42 48bd
00000060: 42ca 0ebd 811d 0cbe c5e7 ac3d 28aa 7b3e
00000070: 3e1a 8d3c 82e0 cbbc 310b 003e ae10 383e
00000080: 500d 18be eea9 403e 1a87 f73d 0fda 45bd
00000090: 6ee6 d5bd c018 0abe b7a0 89bb 4d6c e23b
000000a0: ecff 39bd 62d9 acbd 9c01 6cbd cddd 30be
000000b0: 37c9 3dbd a9af 553e 49df 27be 1645 fb3d
000000c0: f87e 123e b357 023e 8110 783d eacb f23d
000000d0: b93e 4bbd bc6c f23d 424e 1a3e b7ea 87bd
000000e0: decc 013e 2951 20bc d9af 7d3d c062 14be
000000f0: 0376 ddbd 75ad 9dbc c0dd 1d3d e4e4 e3bd
00000100: d618 8fbd 12a9 e9bd 4280 b9bc 7174 f33e
00000110: bb60 f0bd aa45 6cbd 7600 43bc eab5 933d
00000120: 40e7 30bb e03f 9bbc a137 26be 7f40 5b3e
00000130: 9f33 273d 2706 073d 6724 ecbd fed7 68bd
00000140: b45c edbc d2af e93d 51b2 f4bc 6e2e 953c
00000150: 3b09 8b3b 1efa 403e 7c71 91bd 3737 2a3e
00000160: f583 833d d3d9 b8bd 65ff 85bc 9343 4f3e
00000170: d0c1 c0bc 6a3f b5bc 82c2 3c3e b3d7 173d
00000180: 6e23 05be 28b8 313e 4d87 1c3d 2f49 84be
00000190: 9215 cebd 30e1 d33d 8e0f b03d 0d01 133e
000001a0: b753 103e 4024 95bb df1d 223e e68f 37bd
000001b0: f524 4cbd b3d6 3a3e e48f 16be eaf6 743e
000001c0: ee66 103e 650b 6f3e 617b 74bd 583b 763e
000001d0: e180 40be 7dad d3bd 93d2 133e 138f cbbd
000001e0: b919 633e 3d5f f4bc b5db 63bd 2ccb 76be
000001f0: e3bd 843d 47fe 5439 f20a e23d d959 103e
00000200: a440 c0bd 637d 6a3d 9f33 463d b675 9e3e
00000210: e145 babd 698a 2f3e 1952 fd3b d2f3 7c3d
00000220: ebe6 103e 52d0 a4bd ec58 013d 02df cbbd
00000230: 7227 71bd 79fd ff3d fe55 71bd 035c 40be
00000240: 38b1 9f3c 94ee a23d bd83 0bbe 67fa 77be
00000250: 11cc b3bd 443b a93d 3d64 1abd 7e67 033e
00000260: 834b ac3d ed70 75be 8b84 88bd a0cc 403e
00000270: 8ac4 34bd 9ed1 853c a251 253e 232a d3bd
00000280: 40e4 073b d10e 67bd 1870 2c3e ec42 cd3d
00000290: 5b9d 133e b41c ba3d 9474 123e 8945 2cbe
000002a0: 80a0 2f3d 9891 1bbe ca32 a73d 55c5 a03d
000002b0: c8ab 263e e2ac 7c3c 10e1 86bd 6708 03be
000002c0: f319 f0bd 2d5c 83bc 3a9a 0cbe 0f50 b2bd
000002d0: 6c61 7cbd c068 2d3e 8a3e 34bd 2104 143e
000002e0: d246 113d c7f5 9fbd a857 19be 75e3 85bd
000002f0: a52d 423c 1473 cdbd 5d40 9d3d 6641 bb3b
00000300: 05ab 1dbe c5bd 12bd 163b a6bd 397b d53d
00000310: ad15 b53d 3426 4bbe 6a2f fe3d b093 07bc
00000320: 48fc a9bc 80b6 b7bd e003 e13c 719c 4abb
00000330: 769e 7f3d ae18 e9bd a011 bcbc aace 593c
00000340: 1bb3 043e 3489 1abe bccd 913c c3f4 13be
00000350: e878 e2bd dee6 20be 6dc3 183e 14ea 25bd
00000360: 4046 483c 696f e8bd f57b 0e3e 41b2 cbba
00000370: 45a0 83bd 8133 e63d 11de 4bbe 2fd1 223e
00000380: 1f8f c0bd 08de b33d af9b fb3d 32dc 84bd
00000390: 71df 963d c935 62bd 9e06 06be ffea b4bd
000003a0: 1ee3 06be 2c3b fdbd 2e0d c53d d347 85bd
000003b0: 99ca 443d bb7d 883e 9d74 1d3e 0f4d 173e
000003c0: 55a2 113e 15f6 b2ba b29e 583d 8204 3b3e
000003d0: 249d 0ebe 7f4b a83d f7d9 e03c ff20 c7bd
000003e0: 36f8 5c3d ca26 b6bb feac 5dbd bc11 4fbd
000003f0: e078 c1bd 393c e13d cadd 06be 25ed ddbc

weight f4 [32, 32]
-0.11800621 0.0048612957 0.011673875 0.21265864 -0.049049057 -0.1370969 0.07628394 0.18306012
-0.10526224 0.1396962 -0.043996003 -0.11718891 -0.033227336 -0.09278829 -0.061578944 0.009557372
-0.124604285 -0.18695943 0.15470675 0.09175534 -0.017849721 0.020865899 -0.1016079 0.23366539
0.0073704235 0.101613395 -0.05219741 -0.0871205 -0.22096954 -0.066461615 -0.15021652 0.10505961
-0.002086385 0.042503733 0.001081687 -0.066883884 0.17462705 0.054849017 -0.05778422 -0.058678403
-0.004171468 0.18637776 -0.17639439 -0.006630069 -0.09572656 0.0665273 0.11935222 0.05309504
0.05975026 -0.0731878 0.07277065 -0.010327137 0.043896012 -0.16498344 0.13398565 -0.36295474
-0.05915282 0.02791025 0.01696688 -0.022494107 0.06696549 -0.06873875 0.066391975 0.088714674
-0.034730326 -0.03563254 0.109523386 -0.09210792 0.07011913 0.08416693 0.02190666 -0.16645133
0.042305462 -0.1143516 -0.18876047 0.0171873 -0.14450583 0.037721276 0.21449569 0.029576914
0.019439647 0.11106065 0.1320028 -0.015735231 0.004606478 0.15693295 0.11532461 -0.3712558
0.07941339 -0.04694315 -0.0066347853 -0.04343943 0.21790548 0.0017070587 -0.051986467 0.16082211
-0.003178849 -0.19063094 0.15250829 -0.18648407 0.060915604 0.1784407 0.099885 -0.18122134
-0.09190038 -0.038255993 -0.25486276 -0.025571315 -0.063579924 0.0206423 0.037343796 0.12588567
-0.09321919 0.029707745 0.12711374 -0.12536801 -0.07005388 -0.15540025 0.06860555 -0.18827935
0.18159549 -0.057396106 0.16298111 0.051448874 0.022666933 0.13633372 -0.07299062 0.08630265
0.03921049 0.10239206 -0.23196842 0.21295233 -0.09437385 -0.109708495 -0.15603241 -0.08987876
0.08493135 0.13421029 0.15766527 0.085199736 0.10146046 -0.17695068 0.03857247 0.06812372
0.011991959 -0.018459013 -0.0060347747 -0.08719267 -0.15666075 0.006955112 0.010731181 0.39768893
-0.0032213083 0.034206543 -0.19324706 0.07014554 -0.0041624717 -0.19992836 -0.061181396 0.16303475
0.024830168 -0.015284299 0.044958882 0.13368373 0.09538191 -0.038629442 -0.18294372 -0.09832168
-0.20862043 -0.02828336 0.17503941 -0.03142473 -0.010307172 -0.08007897 0.04537214 -0.24345563
0.08487628 0.039462786 0.018333223 0.095612116 -0.2051226 0.06777958 -0.12520657 0.26692185
-0.21547636 -0.017673125 0.00023626338 0.12408754 -0.18020958 -0.1554472 0.0054767113 0.07862209
0.01872641 0.07980315 0.07565531 0.039435066 0.11392474 0.13071997 0.110288635 -0.18256204
0.10229052 0.009121963 0.08846974 -0.12511347 0.0037809256 0.18330616 -0.021754233 0.07998771
-0.11989962 0.08594453 -0.055307318 0.04359777 0.0046973703 -0.1694665 0.076683514 0.121414825
0.03409589 0.012225506 -0.071184695 0.012123157 -0.10822265 -0.102112964 -0.04082373 0.1046025
-0.06954857 0.09994952 -0.009822178 -0.09864335 0.155171 -0.09877182 -0.08479089 -0.035919197
0.13022286 0.1640885 0.06285575 0.19916211 -0.056955945 0.039820287 0.20088065 0.14794154
0.037968405 0.12719806 -0.14569141 -0.03862067 0.19265597 0.120417856 -0.04128163 -0.38532844
0.014792325 -0.17994611 -0.063693896 0.049570467 0.041973066 0.043831144 -0.111812904 -0.15785491
00000000: 3dad f1bd 814b 9f3b c843 3f3c 30c3 593e
00000010: aae7 48bd 2163 0cbe c13a 9c3d 1d74 3b3e
00000020: bb93 d7bd 850c 0f3e 2735 34bd bd00 f0bd
00000030: 6319 08bd c907 bebd 343a 7cbd 8696 1c3c
00000040: 8830 ffbd 4b72 3fbe 726b 1e3e 39ea bb3d
00000050: 9439 92bc f6ee aa3c cd17 d0bd fb45 6f3e
00000060: 9883 f13b af1a d03d f4cc 55bd 3c6c b2bd
00000070: d745 62be 071d 88bd 5cd2 19be 7e29 d73d
00000080: bbbb 08bb 6518 2e3d 65c7 8d3a 6bfa 88bd
00000090: 6fd1 323e 5da9 603d 25af 6cbd c458 70bd
000000a0: cfb0 88bb d0d9 3e3e bba0 34be 0d41 d9bb
000000b0: 490c c4bd 773f 883d f06e f43d 2f7a 593d
000000c0: b0bc 743d 7ce3 95bd c708 953d 2733 29bc
000000d0: 4ecc 333d 6bf1 28be 8933 093e 34d5 b9be
000000e0: 3a4a 72bd 09a4 e43c 20fe 8a3c 9045 b8bc
000000f0: 3425 893d e7c6 8cbd 84f8 873d 0ab0 b53d
00000100: 6341 0ebd 6df3 11bd cc4d e03d 14a3 bcbd
00000110: 9e9a 8f3d b65f ac3d 9975 b33c 3872 2abe
00000120: 7e48 2d3d 2c31 eabd 6d4a 41be 61cc 8c3c
00000130: 56f9 13be a081 1a3d c2a4 5b3e 494b f23c
00000140: e53f 9f3c c473 e33d be2b 073e 2ce7 80bc
00000150: f0f1 963b 08b3 203e 4f2f ec3d 3d15 bebe
00000160: 7da3 a23d 7647 40bd 9d68 d9bb 8bed 31bd
00000170: 9d22 5f3e 63bf df3a c3ef 54bd 8dae 243e
00000180: 3c54 50bb c234 43be 222b 1c3e aef5 3ebe
00000190: a482 793d 29b9 363e 8290 cc3d 1692 39be
000001a0: 4436 bcbd 51b2 1cbd 5f7d 82be ef7a d1bc
000001b0: 3136 82bd 0a1a a93c cff5 183d 2ce8 003e
000001c0: b4e9 bebd a85d f33c 1b2a 023e 7960 00be
000001d0: 6978 8fbd 3e21 1fbe 1181 8c3d 4dcc 40be
000001e0: 2bf4 393e 2e18 6bbd 85e4 263e 0ebc 523d
000001f0: 01b0 b93c 119b 0b3e 1b7c 95bd 72bf b03d
00000200: 2e9b 203d eeb2 d13d 2189 6dbe 2d10 5a3e
00000210: 1447 c1bd d9ae e0bd f6c6 1fbe 5b12 b8bd
00000220: 7df0 ad3d 6c6e 093e 0173 213e 337d ae3d
00000230: 80ca cf3d 8f32 35be 2bfe 1d3d 7384 8b3d
00000240: ec79 443c 5b37 97bc 5cbf c5bb 1292 b2bd
00000250: ad6b 20be b5e7 e33b d6d1 2f3c e29d cb3e
00000260: 961c 53bb 291c 0c3d 8fe2 45be 77a8 8f3d
00000270: 5865 88bb 05ba 4cbe 5899 7abd 95f2 263e
00000280: a368 cb3c ff6a 7abc ce26 383d 63e4 083e
00000290: 9757 c33d e839 1ebd 9955 3bbe e15c c9bd
000002a0: 98a0 55be 81b2 e7bc 883d 333e 38b7 00bd
000002b0: 6adf 28bc 7100 a4bd 23d8 393d 6f4c 79be
000002c0: 9dd3 ad3d bba3 213d 8e2f 963c 49d0 c33d
000002d0: a90b 52be 05d0 8a3d 2736 00be fba9 883e
000002e0: d6a5 5cbe 3bc7 90bc 78bd 7739 9c21 fe3d
000002f0: dc88 38be 8d2d 1fbe fc75 b33b 9e04 a13d
00000300: 2168 993c d56f a33d 2cf1 9a3d aa86 213d
00000310: 6051 e93d 75db 053e 02df e13d 8bf1 3abe
00000320: b17d d13d 4974 153c 9f2f b53d bf1d 00be
00000330: 68c9 773b 9cb4 3b3e ef35 b2bc 99d0 a33d
00000340: ef8d f5bd b003 b03d ed89 62bd 9393 323d
00000350: 66ec 993b a088 2dbe 3f0c 9d3d 56a8 f83d
00000360: 22a8 0b3d 7d4d 483c 48c9 91bd 35a0 463c
00000370: d6a3 ddbd 9a20 d1bd c936 27bd d639 d63d
00000380: 7b6f 8ebd 55b2 cc3d 33ed 20bc 8605 cabd
00000390: 26e5 1e3e e148 cabd d9a6 adbd 0220 13bd
000003a0: 2459 053e d106 283e 84ba 803d 27f1 4b3e
000003b0: a34a 69bd 991a 233d a8b3 4d3e fd7d 173e
000003c0: c284 1b3d 3540 023e 2130 15be b530 1ebd
000003d0: 9b47 453e a39d f63d ed16 29bd c549 c5be
000003e0: 825b 723c cb43 38be f271 82bd 670a 4b3d
000003f0: f3eb 2b3d 4988 333d 2afe e4bd b8a4 21be

weight f4 [1, 32]
-0.32061955 0.25581565 0.17711389 0.20563963 -0.15648402 -0.38150644 -0.0012439744 0.15967579
0.3148441 0.24551001 -0.15822966 0.12875228 0.31889334 -0.3031005 -0.1815526 -0.13833113
0.19811673 0.22330566 -0.06326236 0.19805379 0.21290986 -0.24695317 0.23006274 -0.35972306
0.24728575 0.2973744 0.27552876 0.010526881 0.28310367 0.043327507 -0.2544715 -0.1557238
00000000: 3f28 a4be 45fa 823e 585d 353e 3293 523e
00000010: 593d 20be d054 c3be db0c a3ba 0d82 233e
00000020: 3f33 a13e fa66 7b3e f506 22be a3d7 033e
00000030: fd45 a33e fd2f 9bbe ede8 39be ada6 0dbe
00000040: 1ddf 4a3e 3daa 643e b28f 81bd 9dce 4a3e
00000050: 0b05 5a3e 4be1 7cbe 9195 6b3e 9f2d b8be
00000060: 7a38 7d3e 7541 983e 1b12 8d3e f078 2c3c
00000070: f7f2 903e 2f78 313d 174a 82be 0f76 1fbe
