model/final_NN_model.pt (torch, 280395 bytes, 8 tensors)

weight f4 [128, 18]
00000000: 7939 a13d 67b6 c2bd e6ee 99bc 86e4 3e3e
00000010: 9c11 d4bd 2fa3 fcbd bad6 a63d 2871 6ebe
00000020: f4af f9bd 003d afbd 174f 5d3e f533 38be
00000030: 683c d03d 1168 5dbe c9bb 62be 6ece c5ba
00000040: 4d2e de3d d582 50be ef18 993d 1550 d7bc
00000050: 02b3 5e3e 4e91 14bd ff30 303e 1992 143e
00000060: 45a3 cd3a 654c 68be c9e4 6f3d f766 c73d
00000070: d95a d73d 25ae 18bd 1826 433e a554 dbbd
00000080: f933 df3d 7619 37be 147f 5e3d 3289 f2bd
00000090: 318a d33d 80f0 503d 7a0e 37be 42a5 27bd
000000a0: d666 e1bd bce8 763e 86fb 2abe c02d 9e3d
000000b0: 8039 cdbd 9050 123e 109f 063e 9f8d 19be
000000c0: 1069 943d 6fbf 73bd 7c9a 3a3e c9ba 97bd
000000d0: 5990 9a3e 25c0 403e 5c8f 3bbe d3d7 1abd
000000e0: 33be 36be 1ab4 073e 1e58 e83d dc51 fabd
000000f0: 6018 5abe a431 43be 236e 2dbe 6dda 053e
00000100: 4498 393d 110d f6bc fae3 ef3d acb9 1f3e
00000110: b890 0e3e 83b2 673e 1e88 90bd ff85 abbd
00000120: f4c6 123e c81e 153e c2e4 663d 886b 573e
00000130: 6362 393d 60b6 4bbe 4e03 4e3d 3629 683e
00000140: 408f 203e 2021 40bd 7380 833d c483 fd3d
00000150: d903 d53d 787f 70be d2ba 6ebe aa26 2d3e
00000160: 64ff 943d bbef 49be 98d6 993b 4a2d e6bd
00000170: 89b4 53be 4878 c4bd b7bc b93d 0cc0 c5bd
00000180: 850b 16be fbbe 563e fa7f 8f3d d403 133e
00000190: c4e7 e8bd 6582 1e3e d10f 0a3e 8c4f 90bc
000001a0: 82e2 6e3b dd1a 373e 9443 1f3e dcd8 ebb8
000001b0: f031 a5bd 879a f73d c5c4 6ebe 9fb0 85bd
000001c0: b85a 2dbd 8365 4ebe 3843 11be 16eb 163e
000001d0: 74a0 403e b778 dd3d 891a 59bd f375 e2bd
000001e0: 58b2 4f3e 8c3b 95bb 2511 dfbd 20c9 bbbd
000001f0: 360c 71be 31d7 87bd 062c 45bd 92bf 4cbe
00000200: 799b 23be 076a 8cbe 1c20 1bbe 546e 593e
00000210: 0987 733d d655 77be 9523 1b3e 0c2d 043c
00000220: dece b23c 59c7 863e c405 28be f9ab 0fbd
00000230: f731 67bc 199f c4bc 0b4a 5fbd 8e19 f33d
00000240: a2fb bcbd e7bc 053e 41b9 c6bd 2554 48be
00000250: c68a 703c 2390 123e 7543 4b3e d731 38bd
00000260: ad7c 053e bd17 7f3e 9e6f 89bd 834b 55be
00000270: 0afc 00bc c708 433e ae62 2d3d bb70 4b3e
00000280: bf9c 99be 038e 493e 3388 56be 7f22 64be
00000290: 8e6a c53c 2286 8bbd 13b3 5c3e 8f16 2b3d
000002a0: c474 2bbe 5118 2fbe 42ca eb3d 24f6 eebd
000002b0: 2227 3d3e b48b 963c df6c 333d 4a17 b0bc
000002c0: 4d1a 183d a6e7 223d 179e f63d 44bf 403e
000002d0: 7201 253e 6c83 093e a53f 2bbd 1136 013e
000002e0: 03af c2bd 3484 2dbe ab14 6a3d f415 0a3e
000002f0: b08d 86bc 1431 dc3d 2e8f ae3c 5550 01be
00000300: 238a 0a3e 1da2 133e 23eb 243e 352d 88bd
00000310: 9166 6ebe edca 803d 8ba0 a33d 11c2 a2bd
00000320: 2ca3 e83d d321 e3bc 49c1 a7bc fdf4 583e
00000330: 6970 59be 910c 873d e043 1a3e bb7a 2dbe
00000340: 2886 5bbe a8b3 a33d 7598 5d3e 2f81 3dbc
00000350: 2f90 5bbe e101 a23d 6fec a0be 9124 14be
00000360: 032f 07be 4252 31be ddb6 1f3e 4218 fdbd
00000370: b8c7 69be e20c 5d3e 8510 353e 6084 a93d
00000380: 64bd 9fbd b8cf b4ba 5703 3fbe 42d2 503e
00000390: 0ed1 09bd fee6 2dbe 585a 21be 21d3 da3d
000003a0: 7520 80be 6f63 ebbc 582a 043d 50bc 4bbe
000003b0: 2bb2 0cbe d234 913e fa7a 19be 89ee 74bd
000003c0: 9128 663e b20d 62be aaac e33d e08f bebd
000003d0: 5fa1 2dbe 5288 cabd ed18 1e3d b09c a23d
000003e0: 6b8b 8fbe 0a0e 333c 9e5b 9f3d 332d 393e
000003f0: 29e0 60be ca99 773e a1b9 78be d1b9 b03d
0.0787229 -0.09507447 -0.018790673 0.18641862 -0.10354921 -0.12335812 0.081464246 -0.23285353
-0.121917635 -0.08556557 0.21612202 -0.1798857 0.101677716 -0.2162173 -0.22141947 -0.0015091428
0.10848675 -0.20362408 0.07475459 -0.026283303 0.21747974 -0.036271386 0.1720619 0.14508857
0.0015688917 -0.22685392 0.058567796 0.09736436 0.10515375 -0.037275452 0.190575 -0.10709504
0.10898585 -0.17880806 0.05432041 -0.11842574 0.10329092 0.05101061 -0.17876616 -0.040929087
-0.110059425 0.24112219 -0.16697511 0.0772357 -0.10020733 0.14288545 0.13146615 -0.1499543
0.072466016 -0.059508737 0.18222994 -0.07408673 0.30188254 0.18823297 -0.18316406 -0.037803482
-0.17845993 0.13252297 0.11344932 -0.12222645 -0.21298361 -0.19061905 -0.16936545 0.13071604
0.045311227 -0.030035527 0.11713405 0.15598172 0.13922393 0.2262669 -0.07057212 -0.08375167
0.14333707 0.14562523 0.056370504 0.21037114 0.045259845 -0.1989379 0.05029612 0.2267197
0.15679646 -0.04690659 0.06420984 0.12378648 0.104011245 -0.23486125 -0.23313454 0.1690928
0.072752744 -0.19720356 0.004694771 -0.11239107 -0.20674337 -0.09593254 0.090691976 -0.09655771
-0.14652832 0.20971291 0.070068315 0.14356929 -0.11372331 0.15479429 0.13482596 -0.017616056
0.0036450927 0.17881341 0.15553123 -0.000112460664 -0.080661654 0.120900206 -0.23317249 -0.065278284
-0.042322844 -0.20155911 -0.14185798 0.14738116 0.18811208 0.1081404 -0.05300382 -0.11057653
0.20282876 -0.0045542177 -0.10891942 -0.09169221 -0.23539814 -0.066328414 -0.048137687 -0.19994953
-0.15977277 -0.27424642 -0.15148968 0.21233493 0.05945495 -0.24153838 0.15150292 0.008067381
0.021827158 0.26323965 -0.1640845 -0.035076115 -0.014111034 -0.024001645 -0.054513972 0.118701085
-0.09227683 0.13060342 -0.09703303 -0.19563349 0.014681524 0.14312796 0.19849952 -0.044969406
0.13035841 0.24911399 -0.067107424 -0.20829587 -0.007872591 0.19046317 0.042330436 0.19867222
-0.300024 0.1968308 -0.20950393 -0.22278784 0.02409866 -0.06812693 0.21552686 0.04176956
-0.16743761 -0.1709912 0.11513187 -0.11668041 0.18471959 0.018377163 0.043805 -0.02149548
0.037134457 0.0397717 0.12041872 0.18822962 0.16113833 0.1342904 -0.041808743 0.12618281
-0.09506037 -0.16944963 0.057148617 0.13484937 -0.016424984 0.107515484 0.021308508 -0.126283
0.13529257 0.1441731 0.16105323 -0.066492476 -0.23281313 0.06288705 0.079896055 -0.079471715
0.113592476 -0.02772609 -0.020477908 0.21187206 -0.21234287 0.06594194 0.15064955 -0.16941349
-0.21437895 0.07993251 0.21640189 -0.011566444 -0.2144172 0.079105146 -0.31430385 -0.14467074
-0.13201527 -0.17316535 0.155971 -0.123581424 -0.22830093 0.21586946 0.17682083 0.08277202
-0.07799795 -0.0013794815 -0.18653618 0.20392707 -0.033646636 -0.16982648 -0.1575712 0.10684801
-0.25024763 -0.028733937 0.032266945 -0.19896054 -0.1373984 0.2836061 -0.14988318 -0.059797797
0.22476412 -0.22075537 0.111169174 -0.09304786 -0.1695609 -0.09889282 0.03859799 0.07940042
-0.28036055 0.01092864 0.077811465 0.18083648 -0.2196051 0.2417976 -0.24289562 0.08629192

bias f4 [128]
00000000: 27f0 753e 9b71 eabc 40e5 adbd bc56 3a3e
00000010: cd05 e2bd b6d4 12be e058 0b3d b864 12be
00000020: 37af 9bbd 6892 49bd d18a 49be 23fb a93d
00000030: 666c 1ebe 578f 653e fe62 6fbe 9bfd cabc
00000040: 3421 c63b 496d 193e d1df 13be c9a4 593e
00000050: 49d6 1dbe 3b2e 1b3e dfa0 92bd 4f13 65bd
00000060: 8c15 873d d8a1 ec3d 1a6d 34be 4edd 2b3b
00000070: f362 853d e079 aa3d 63e4 423d 8b8b e0bc
00000080: 015d c63d 3734 123e 9dfd e33d ecc7 42be
00000090: 0199 6f3d ee23 c6bd 4705 423d 75a3 eebd
000000a0: a1d2 cdbd cd4d 8e3d 655c 69be 36bb 513e
000000b0: bd15 72bd 2baf 163e 45f4 703e 4515 36be
000000c0: 58a8 a0bc fbe6 333e b6f2 06be 9828 363d
000000d0: 8265 bc3d 8b3f 463e 52df de3c 448c 72bd
000000e0: ded7 66bd 6649 f23d 408e 263e cdc1 023e
000000f0: 221c 6ebe fa9f bcbd fb30 da3b f99b 4b3e
00000100: 48ff 993d 3958 70bd bd62 c33d 6fed 133a
00000110: 8d37 3e3e ce4e 35be 1e1c 003d b194 c63d
00000120: 996a ff3d b88f 32be 5e34 883d 39bc 31bd
00000130: 969e 4a3e f88b 533e 89c3 adbd ff3d 5fbe
00000140: c444 4d3c 78f5 2a3e 8361 2c3e 12f4 5fbd
00000150: dc22 a2bd 955f 173e d790 1c3e 0fa0 39be
00000160: f282 8d3c f893 94bd 5599 debb 7050 78bc
00000170: edc1 323e d07a 4c3d 5060 d1bd 5c9c 23be
00000180: ec7e 28be ca9c 2c3e 35af f0bd a268 6a3e
00000190: a19d 3bbe a4bc 5ebe 2ad8 3dbe ad05 3b3e
000001a0: 060d 40be 5e97 0d3e 0d3e 623e 729b b7bc
000001b0: 94de e93d 9262 2dbd a46c 22be 62bc d43d
000001c0: 2805 2fbe c02f 2ebe 54bd e4bc 7225 acbd
000001d0: c6b3 18be 120a 573e 37ac 143e c3cb 6f3d
000001e0: 89df cbbd 6371 46be 5af1 cebc dccf 0fbe
000001f0: 20f8 fe3c eaf9 57be 464b 563d fd1d 843d
0.24017392 -0.028618624 -0.084909916 0.18197149 -0.11036263 -0.14338955 0.034020305 -0.14296234
-0.07601779 -0.04921189 -0.1968186 0.08299854 -0.15471038 0.22417961 -0.23377606 -0.024779132
0.0060464386 0.14983095 -0.14440848 0.21254267 -0.15413775 0.15154354 -0.0715959 -0.055926617
0.065959066 0.11554307 -0.17619744 0.0026224437 0.06513014 0.08324027 0.047581088 -0.02741029
0.09685708 0.14277731 0.11132357 -0.19021577 0.058495525 -0.09674822 0.047368314 -0.11652271
-0.1004994 0.06948433 -0.22789152 0.20481572 -0.059102762 0.14715259 0.23530681 -0.17781551
-0.019611523 0.17568581 -0.13178524 0.044472307 0.091990486 0.19360177 0.027206097 -0.0592158
-0.05635821 0.11830406 0.16265202 0.12769242 -0.2325292 -0.092102006 0.006658671 0.19883718
0.07519394 -0.058677886 0.09540317 0.00056429853 0.18575878 -0.17705843 0.031276815 0.096963294
0.12471504 -0.17437637 0.06650613 -0.043392394 0.19787058 0.20658863 -0.08484561 -0.21800993
0.012528602 0.16695201 0.16834073 -0.054676123 -0.07916805 0.14782555 0.15289627 -0.18127464
0.017274354 -0.07254785 -0.006793181 -0.015155897 0.1745679 0.04992181 -0.10223448 -0.15977615
-0.16454667 0.16856685 -0.11752168 0.22891477 -0.1832185 -0.21751648 -0.18539491 0.18263884
-0.18754968 0.13827273 0.22093983 -0.02241299 0.114194065 -0.042330332 -0.15861756 0.10387494
-0.1709181 -0.17010403 -0.02792231 -0.084055796 -0.14912328 0.20999935 0.1451882 0.05854393
-0.09954745 -0.19379191 -0.02526157 -0.14044136 0.031124175 -0.21091428 0.05231788 0.06451032

weight f4 [128, 128]
00000000: 14bc 17be bc34 f53c 6bc4 cb3d bb3c 94bc
00000010: 652f efbc c322 25bd 6c0e 16bc 892d b3bd
00000020: 6bc4 d93d fb3f 00bd f6a6 d53d 1a7f 6abd
00000030: d31d d4bc 7242 92bd 0eeb 993d 357c 0e3d
00000040: 5a46 a5bc a1b2 54bd fa91 d8bd 60a8 a7bd
00000050: 8fcf 603d b3dc aebb 5382 843d c2a2 113d
00000060: aacd 963c 5aea 473d 22f6 b4bc 2d00 41bd
00000070: ce94 7b3d 0ca5 643d 92e9 953c 2776 bdbb
00000080: d526 1fbe 5037 9fbb 8a4a fcbc 546e 3dbd
00000090: a245 4cbd 16f1 a33d a492 143c c9fd 93bd
000000a0: 1f0c 3dbd 6a51 833c a57d 743d 2c1f b43d
000000b0: 52ff babc 0559 2c3d d9cd 51bd 59be 993d
000000c0: 280e 0e3c b6ea 8abd d9f8 2ebd 9975 903d
000000d0: aa3b 863d 6a0c 783d 39fb 623d 1c6b c43d
000000e0: eea5 c5bd 1c3c 803d 492a 663c bcb0 64bc
000000f0: 6a14 8b3d 161f 453d bc7f 80bd 0f9d 9d3d
00000100: 37a3 8abd 0eda aabd 18a6 3d3d 87a3 fabd
00000110: 0f5e 87bd 3aff 0c3d 6951 5a3c 7045 713d
00000120: 6f6b fcbd 27d8 a6bd e664 163d 5ed2 ec3c
00000130: 521d d13c d2ed 013c d046 9ebc 9866 f1bd
00000140: 1adc b2bd b30e 43bd 713c 37bd 57da 2d3c
00000150: 1224 bc3b 97c7 353b a9e6 9bbd 22e1 81bc
00000160: 9b95 643c 7726 5bbd 1c74 19bd c3a7 9dbd
00000170: 9f68 96bd 1a67 07bd 1daf 2f3d 6810 033d
00000180: 9371 abbc 235d ed3d f059 89bd 84e3 e53c
00000190: e15e 8d3d 932c 1d3d a120 a7bd f35a 903d
000001a0: ecd6 62bd ba14 be3d 3ad9 113e c2d4 64bd
000001b0: 1f1e 643c 8ea2 6cbd 7c97 86bd f052 b83d
000001c0: 5131 233d aec1 a8bd cb63 f2bd eb80 56bd
000001d0: 4604 0ebc 3b9e 583d f6ac c43d 5ad5 49bb
000001e0: 6344 ccbb a08a 0fbe df0c d33d 4236 5d3c
000001f0: 1115 e63c aa99 0e3d ed8d 64bd f55b 573d
00000200: cb72 b73c 23c7 a83c 9350 9ebd fd24 3fbd
00000210: 6c9c 843c 0b4e 6dbd 7b1c 87bb 3456 a5bc
00000220: 8b90 833d c812 a5bd dc89 b23c 9bb6 b43d
00000230: 81db 9a3d 1d60 4ebd 93fc 253d 2927 283d
00000240: c634 17bd 58bb 2f3b 2e97 943d 999a ea3c
00000250: 2558 693d 99bd 1b3d 0423 bd3c b20a f4bc
00000260: 886f b53d 4eb3 ae3d 2d31 1cbd db7d 443d
00000270: 1176 49bd 22b5 14bd 20db 023c a8e2 d33b
00000280: 4292 9a3d d690 323d 54c1 94bc 5fcf 873d
00000290: aa38 04bd 1cb7 95bd fa63 6f3d e47e ac3d
000002a0: b595 87bd 174e 17bd a5f0 13bd 696f 54bd
000002b0: cb44 37bd 0e46 4d3d a07e 4d3d cbc8 d83c
000002c0: 3b2d a73d 50ca cc3d 325b b43c fd95 62bc
000002d0: 5108 3b3d 8ab2 873d 8bcb 47bc 0f4e 40bd
000002e0: aed5 b33c c0b7 74bd 8e71 5b3d 890f 6b3d
000002f0: b4b0 283d 2e96 21bc ea2a 913d 65aa 2c3d
00000300: c205 8a3d 217f a8bd a96a 93bb f34b 65bd
00000310: bc9e b13c 73cb b03d 8c9d bcbc e49c 9cbd
00000320: 793a 42bd f356 96bd 09be b7bd 2e05 0dbd
00000330: 1df4 bebd 89fd c93b 2862 543d 5be3 06bd
00000340: b6e5 a93b 242e adbc 7d9b 8fbd c595 2ebc
00000350: 3e1f a6bd 82b2 2fbd 6f18 033e bd13 e8b9
00000360: 093e 003d 201c 03bc 6452 cdbd d54b 383d
00000370: ccca 1c3d b369 3b3c db58 263d e2b9 54b9
00000380: 10bd 9cbd 768d 5ebd d1f3 b23d b318 db3c
00000390: d5f9 923c 0b47 e43c c891 1f3d 02fb b13d
000003a0: 5876 a23c ad70 203d a810 cbbd 14be e63b
000003b0: e9e3 87bd 03aa 793d fe68 733d 3e63 4cbd
000003c0: fb5a ebbd 5c17 1ebd 5df2 89bc 2658 403c
000003d0: ce67 4d3d cc8a 903b e7e3 1b3d d362 8b3b
000003e0: ad15 ebbc 1891 a83d d2bd f8b9 4277 08bd
000003f0: 6709 4c3d d680 55ba e71f 583c 2f8a 4c3c
-0.1481784 0.029932372 0.09949573 -0.018095365 -0.029197404 -0.040316354 -0.009158712 -0.087489195
0.10633167 -0.031311017 0.10432236 -0.05725012 -0.025893128 -0.0714158 0.07515536 0.03478642
-0.020175148 -0.051928166 -0.10574718 -0.08186412 0.054885443 -0.005336368 0.0647017 0.03555561
0.018408615 0.04880748 -0.022090022 -0.04711931 0.061421208 0.055821463 0.018299852 -0.005781907
-0.15542157 -0.0048588887 -0.030797262 -0.046247795 -0.049871095 0.08004968 0.009068165 -0.0722614
-0.046154138 0.016030032 0.059690136 0.08795008 -0.022826824 0.042077083 -0.051221702 0.07507009
0.008670367 -0.06783049 -0.04271779 0.0705368 0.06554349 0.060558714 0.055415366 0.09590742
-0.09650789 0.06261465 0.0140481675 -0.013958152 0.06791003 0.04812535 -0.062743634 0.07695972
-0.06769412 -0.08342372 0.046300977 -0.122382216 -0.06609737 0.03442309 0.013325074 0.05890411
-0.12325179 -0.081466965 0.036717318 0.028908905 0.025526676 0.007930236 -0.019320875 -0.11787146
-0.08733387 -0.04762144 -0.044735376 0.010611138 0.0057416046 0.0027737373 -0.07612354 -0.015854422
0.013951684 -0.05350348 -0.037464246 -0.07698014 -0.07344174 -0.03305731 0.04289161 0.031998068
-0.02092818 0.1159003 -0.06706607 0.02806259 0.06902862 0.038372587 -0.0816052 0.07048597
-0.055380747 0.09281297 0.14243022 -0.055866964 0.013923197 -0.05777221 -0.06571862 0.09000194
0.039841954 -0.082400665 -0.1183544 -0.05236904 -0.008668011 0.052885275 0.09603302 -0.0030797333
-0.0062337383 -0.14017725 0.10305189 0.013501706 0.028086217 0.034814514 -0.055799413 0.05257793
0.022393605 0.020602768 -0.07730212 -0.046666134 0.016187869 -0.057935756 -0.004123268 -0.020182706
0.06424054 -0.08060223 0.021794252 0.08823892 0.07561398 -0.05038463 0.040524077 0.04105297
-0.036915563 0.0026814546 0.07255398 0.028638171 0.056968827 0.03802261 0.023087986 -0.029790256
0.088591635 0.085302934 -0.038132835 0.047971588 -0.049184863 -0.036305554 0.007986814 0.0064662285
0.07547428 0.043595158 -0.018158592 0.0663135 -0.0322806 -0.07310316 0.058444954 0.0842264
-0.06620351 -0.036939707 -0.03611817 -0.05186406 -0.04474334 0.050115637 0.050169587 0.026462933
0.08162924 0.099995255 0.022016142 -0.013829705 0.045662228 0.066258505 -0.0121945245 -0.046949442
0.021952476 -0.05974555 0.05357509 0.057387862 0.041184142 -0.009862466 0.07088263 0.04215469
0.067393795 -0.08227373 -0.004498799 -0.055980634 0.021682136 0.08632555 -0.023024343 -0.07647112
-0.047419045 -0.07340803 -0.08971793 -0.034428768 -0.09323905 0.006164257 0.05185142 -0.032931667
0.0051848544 -0.021140166 -0.07012079 -0.010655825 -0.08111428 -0.042894848 0.1280229 -0.00044265194
0.03130916 -0.008002311 -0.100254804 0.044994194 0.03827934 0.011438775 0.040612083 -0.00020287142
-0.07653248 -0.054334126 0.087379105 0.026745176 0.017941395 0.027865907 0.038957387 0.08690454
0.019831821 0.039169956 -0.09915286 0.007041702 -0.06635267 0.06095315 0.0594263 -0.049899332
-0.114919625 -0.038596496 -0.0168392 0.011739766 0.050147824 0.004411077 0.03805914 0.004253724
-0.02869686 0.082307994 -0.00047443673 -0.033316858 0.049813654 -0.0008144503 0.0131912 0.012484117

weight f4 [128, 128]
00000000: 92d9 99bd 4494 df3c fe40 cebd 559f da3c
00000010: 455e 6e3d a4e2 273c 57ee 903d feb5 423c
00000020: 8a25 2bbc 5eb1 2cbd 5bd7 f23c 2e84 b13d
00000030: 5c1b 85bd 83fa 6fbd 8cd2 bcbd 8afd abbd
00000040: d3c4 14bd a872 4abb 531a 50bd f60a 643b
00000050: dd68 2ebc c5be 45bd 4937 a13c dd61 d0bd
00000060: 82d6 62bd f44d 1abc 7826 14bd 933e 693d
00000070: 65be b33d fbdd 51bd 5071 aabc 1260 843b
00000080: da27 febc b005 40bc 6541 8e3c f2b5 ee3c
00000090: a2ad 1dbd 6204 50bd 1843 56bc 9082 50bc
000000a0: 5372 8c3d 8e31 963c 1b1a 25bc 077c 423d
000000b0: d8ff 173c dadb 90bd 58c7 70bd 839c 963d
000000c0: cf31 883d 20f6 65bd e873 863c 215b c7bc
000000d0: 4d63 e23d 6304 a2bd 4d6e a13c c26f e43d
000000e0: f6d2 613d 38d7 0f3d b68d 93bd 70fa 383d
000000f0: 7e36 943d 3408 d53d edca f63c 4196 bc3c
00000100: ab02 f7bd 96dd f93c 6afa c83d abf3 0ebd
00000110: 36ee b0bc ba6c 773d 45c5 a53d 53f1 e03c
00000120: 6d61 913c 3944 2dbe 8981 91bd 3594 eb3c
00000130: d609 13bc 2b96 65bd ca2b a93d c86f 9c3d
00000140: e895 b53a d343 b23d c1f8 65bc 2457 c4bd
00000150: 4b09 c2bc c898 413d bbd4 b5bb e443 623c
00000160: 5a22 93bd 5c14 423d 6766 223d 2f91 443d
00000170: e46e b1bc 8014 2d3d 48fa fc3c e889 eabc
00000180: d495 06bd 86b3 623d 4785 35bd daac 57bd
00000190: c909 7f3d bf95 9e3d 893f e3bd 9620 90bd
000001a0: 36c5 233d 54c8 323d 042b 81bd c736 853d
000001b0: 67e5 da3c f98b 653d 26cb f03d 1efc 52bd
000001c0: 5aa5 c6bd bbcd 743c cb8f 3b3d cbcb c5bd
000001d0: 5ca8 94bd cd3d d13c 83a5 98bd c8d0 2bbd
000001e0: 67b5 f73c 4b81 a13d 5e16 103e 03b7 503d
000001f0: ae68 c43b b3d8 863c 9a25 a9ba 8a71 9f3d
00000200: e31a 69bd 5822 4a3c 4a6e cebc b427 27bd
00000210: 7386 0a3e b234 ad3d 1d0b 9abd 2fb5 9ebc
00000220: 2ff2 483c 99fd 3cbc eb6e 253d dd26 973c
00000230: ef35 703c 29ba 383c 6ab1 a7bd 5ee2 d4bb
00000240: 13c7 fbbd d89f 183d 26f1 f03a 817e 05bd
00000250: 0cc4 adbd 89ad c9bd 43dc 18bd 5aca b5bd
00000260: 82c6 cd3d c741 9bbd 5187 a03d 75ef a8bd
00000270: f22d 0abe b968 b1bd baa6 8abd 3171 bd3c
00000280: 8a88 3d3d 878a 3bbc c00d d03c 94fa 243d
00000290: 721b 0a3c ec27 75bd 63f8 85bc 4fc8 cdbb
000002a0: 0533 00bb f30d 5abd 26af 3c3d 4ed3 673b
000002b0: c2bb c93c 562d 9dbd c0cb bc3d 3fb6 95bd
000002c0: 48a6 af3d 1e54 09bd 87ff a13d d5fe 443d
000002d0: 39d2 5d3c 91d0 513d 6f76 90bc 8253 c8bc
000002e0: d0eb ddbc 3434 5ebd a747 81bd e892 833d
000002f0: 62ae 863d 328e 12bd a2e0 63bd 4619 1bbd
00000300: 5d1a dbbb 679b 91bd ce0f a53d 00df 403d
00000310: 3829 cd3d aed4 d23c 3dcf 3f3c 88aa e4bb
00000320: 334d 923d 0c59 60bc 568e 6cbd 37a8 993c
00000330: d14f 91bc bc72 bdbc 7495 833c 42a3 91bd
00000340: 129a e83c 659a f63b 6f9f ccbc 6794 663d
00000350: 8ba3 5dbc aa1a 87b9 f396 16bd 2eee cbbd
00000360: c99d 86bd 6145 a23b 5187 1abd 5ae0 c73d
00000370: e3bd 443c c1d4 1d3e af09 273d 873c 0b3d
00000380: b9a0 8fbc b609 34bd 86b5 093d 7a31 a23c
00000390: b1ee 1dbd 1b14 dcbd 2fc8 0dbc 021c a73d
000003a0: 6c40 8cbd 187d 993d 3950 1bbd d3df b13d
000003b0: 073d b63d e60b a1bd e00a 95bd ce6e afbd
000003c0: cefa 12bd 59d9 693d 7d27 92bd 4c2a 0e3d
000003d0: 61c0 e43c d53c a3bd 77c0 513d 8a00 df3d
000003e0: 6394 c63d 2706 a03d 8571 88bc d670 8ebd
000003f0: c8c5 edbc 5dd8 02bd 9de4 39bd 5ab2 d73d
-0.07512201 0.027292378 -0.1007099 0.026687304 0.05819537 0.010246906 0.0707671 0.011884211
-0.010445962 -0.042161338 0.029643705 0.086677894 -0.06499359 -0.058588516 -0.09219846 -0.08397968
-0.03632052 -0.0030891094 -0.050806355 0.0034796572 -0.010645119 -0.048277635 0.019679682 -0.10174916
-0.05538035 -0.009418 -0.0361695 0.05694444 0.08776549 -0.051237088 -0.020805985 0.004039773
-0.031024862 -0.011720106 0.017365167 0.029139493 -0.038495667 -0.05078543 -0.01307752 -0.012726441
0.06857743 0.018334176 -0.010077025 0.047481563 0.0092773065 -0.07073183 -0.05878386 0.07354071
0.06650125 -0.056142926 0.01641269 -0.024335446 0.11054096 -0.07910993 0.019705916 0.111541286
0.05513283 0.035117358 -0.072047636 0.04516071 0.07236956 0.10401955 0.03012606 0.023020865
-0.12061056 0.030501168 0.09813388 -0.03490035 -0.021597963 0.060406424 0.08094267 0.027458822
0.017746652 -0.16920556 -0.07104785 0.028757194 -0.008974513 -0.056051414 0.08260305 0.07638508
0.001385388 0.08704343 -0.014036358 -0.09586933 -0.023686072 0.047264844 -0.005549041 0.013810132
-0.071842864 0.047382697 0.03964844 0.04799002 -0.021659322 0.04225588 0.030881062 -0.028630212
-0.03285773 0.05534699 -0.044316556 -0.05265508 0.06226519 0.077434056 -0.11096103 -0.07037465
0.039982997 0.04364808 -0.06307033 0.065045886 0.026720716 0.05604169 0.117574975 -0.05150997
-0.09699507 0.014941628 0.04579143 -0.09658011 -0.072586745 0.025542164 -0.07453444 -0.041947156
0.030237867 0.07885989 0.14071032 0.050955784 0.005993924 0.016460752 -0.0012904883 0.07785328
-0.056910407 0.01233729 -0.025199074 -0.04080935 0.13527851 0.084573165 -0.07521651 -0.019373504
0.012264772 -0.011535072 0.040388983 0.018451149 0.014661296 0.011274853 -0.08188136 -0.0064967116
-0.1229383 0.037261814 0.0018382415 -0.032591347 -0.084846586 -0.09847552 -0.037319433 -0.08876486
0.10047628 -0.075809054 0.078383096 -0.08248798 -0.13494089 -0.086625524 -0.06770082 0.023125263
0.046272792 -0.011446602 0.025397182 0.040278032 0.008429395 -0.059852526 -0.016353792 -0.006279982
-0.001956166 -0.05323596 0.046065472 0.003537375 0.024625663 -0.07674663 0.0921855 -0.07310151
0.085766375 -0.033527486 0.07910066 0.04809459 0.0135388905 0.051224295 -0.017634599 -0.024453882
-0.027089983 -0.054249004 -0.06312495 0.064245045 0.0657623 -0.03578014 -0.05563415 -0.0378659
-0.0066864924 -0.07109719 0.08059655 0.04708767 0.100176275 0.02573618 0.011707124 -0.0069783367
0.07143631 -0.013693105 -0.05775293 0.018756969 -0.017738255 -0.023125999 0.016062476 -0.07111217
0.028393779 0.0075257295 -0.024978368 0.05629387 -0.013527761 -0.00025769073 -0.03676505 -0.099575385
-0.06573064 0.0049521183 -0.037726704 0.097595885 0.012008163 0.1541319 0.04078072 0.03399327
-0.017532693 -0.043954574 0.03362038 0.019798983 -0.038557712 -0.10746022 -0.0086536845 0.08159639
-0.06848225 0.07494563 -0.037918303 0.08685269 0.08898359 -0.078635976 -0.07277465 -0.08566056
-0.035883717 0.057092045 -0.07136438 0.034708306 0.027923765 -0.07970587 0.05120894 0.10888775
0.09696271 0.078136735 -0.016655693 -0.069551155 -0.029024974 -0.03194462 -0.04538404 0.10532065

weight f4 [128, 128]
00000000: d914 5b3c ad83 a2bc 4732 e33d 59d7 563d
00000010: 986d 243d 4a01 2f3d dd03 0c3d b61d 0d3d
00000020: b6e9 dabd 609c 38bd f2af bbbc 1043 cebd
00000030: e1cd 0fbe f8ef d5bd 113f 763d d357 fa39
00000040: 8a51 fa3b 8331 463d 7ad4 febd 5a9e 81bd
00000050: 6557 ddbd 2d96 633d 050f dbbd 30a8 933d
00000060: 557f 97bd 3ce7 22bc f585 333c e92f b23c
00000070: 7a59 fa3c 5f8e 03be 8f3d b73d 90df a03d
00000080: 4864 3a3c 1b2c a13d 88e3 14bc 1b0b 1c3e
00000090: cd6f a53c f923 0dbc ff7a bbbd 7158 c33a
000000a0: afd3 88bd 98e0 febd 35e5 00be cef4 813d
000000b0: 5e28 bb3d c7d9 843c cf57 8c3c 189e d03d
000000c0: 98d5 b23d 0ad3 18bb 8b7c 793c 9871 503d
000000d0: 0c7d 0b3e f3a3 383c 3fc1 213d 8aa0 9d3d
000000e0: b3b8 7ebd acf2 f93b 1f9a 963d 5b8f 8f3b
000000f0: 12e3 0abd f228 7f3d 19d8 07be 724e 693d
00000100: 8acf bc3d 462f 3f3d be7c adbb 7f89 2abd
00000110: 9deb c93d 1459 c93c d37e e23d 2a3f b13c
00000120: 21b5 55bd cfa6 773d e1d9 ec3d 8bca 933d
00000130: fe71 723c b33a 87bd 4162 433c db7b 8fbd
00000140: f612 973d 6460 44bd 9a07 a4bd 3902 67bd
00000150: c76a 903d 4248 d93c 6ee9 933c 4215 453d
00000160: 1ea4 7d3d 0a06 9e3c 1849 0b3d 57dc cabd
00000170: 3821 4b3d 2b09 323d 7f44 b1bd a17d 073e
00000180: 5db8 ff3d dc3f f2bb e49e bf3d 5d8d 30bd
00000190: a144 b23d 7d61 af3c 782f 9b3d 9a23 183e
000001a0: ec90 7e3b 8f08 08be f622 153e 3f2f 9fbd
000001b0: 83dc a1bd e0e1 4b3d e97d e63d 208c 713d
000001c0: baf2 b33d 0ecc 5abc 41ca b13c 8611 93bd
000001d0: 691f b33d baca 47bd fe12 4dbc 2893 bdbc
000001e0: d4e2 6ebc 35b3 163d 3af8 943d e245 c63d
000001f0: 906d c1bd 5951 f4bc d5b6 36bd aca4 ad3d
00000200: 14ef 07bb daa4 b33d 1b4e 9e3b 53a4 41bd
00000210: ddae 27bd 9d13 7c3d bdf2 6bbd 5ba6 e6bc
00000220: db73 1d3c c53d 9b3d 439f 10bd f0b7 3abc
00000230: d42d 8e3d 5d96 7dbd d90e a3bc f3de 123b
00000240: 05f8 8d3d fe6c 573a 59c9 5e3d 2257 08bd
00000250: cc73 9e3c e28e e43c 8ac0 a9bc fedd 373d
00000260: a31e 16bd 759b 9cbd 0283 6fbd 8644 c8bd
00000270: a13b 563d 4cbf a8bd 95c8 c6bd 35be 51bb
00000280: f0cd 39bc e75d aebd d73e d2bc 9a50 643c
00000290: acb1 803d 6831 213d 3433 f13d ccf8 f63c
000002a0: 1bed c73c 7c60 953c c2e3 c93d 6305 a83c
000002b0: 8eaa 45bd a925 45bd 066b 0dbd 67cc 923c
000002c0: 46cb 89bd 9c45 ddbd d0b9 293c 1ae3 bf3b
000002d0: 6ca7 023d 4036 c3bc aa1c 053d 0d34 75bd
000002e0: d962 45bd 249e ad3d 5ba8 85bd 2030 583d
000002f0: bbb3 3ebd ed61 38bd 16ad be3c 05f4 77ba
00000300: db14 45bd 7c12 8bbd a657 48bd 681b f63d
00000310: 3496 18bd 8a0b 873d cb73 16bc 115f 183d
00000320: fc0a 863d 6fb5 ac3d 430c 0fbd 46ad 42bd
00000330: 829a 3abd 8a30 41bd 4735 973d 68b9 5dbd
00000340: 90ce 85bd 66b5 5bbd b6d0 babd 4984 61ba
00000350: 59c3 093e 6fa2 7f3d 42be 80bd 672f 11bd
00000360: 9f5e 8a3d a7d8 8f3d 575b b53d c313 babd
00000370: 2540 baba 1f69 9ebd e803 29bd b9f1 f03c
00000380: 1ca8 ec3c f1dc 4fbd 5f09 89bd d8e3 33bd
00000390: 3c82 d7bc e05e f9bc fbe4 cbbc 1b92 3dbc
000003a0: 1e17 edbd c3ab 3cbd a4d5 353d 6dc8 a2bd
000003b0: 0079 a73d 338b de3c 941b 80bc 3f28 c5bd
000003c0: 487a a33d e95d 8f3d 0ed5 b9bd c981 823d
000003d0: 4bf5 c03c ab15 e43a 5726 c43c 963f b9bc
000003e0: 876e a83d 033a 7bbd 357b 243c ad21 42bd
000003f0: 6c44 433d d8ec 8abc 5f03 f23b 3fcd 91bd
0.01337167 -0.019838179 0.11093574 0.052451465 0.04014358 0.04272584 0.03418337 0.034452163
-0.10689108 -0.045071006 -0.022911046 -0.10071385 -0.1404338 -0.10446161 0.06011874 0.0004774915
0.0076391147 0.04838706 -0.124428704 -0.06329031 -0.10807685 0.05556314 -0.10696224 0.072098136
-0.073973335 -0.009942826 0.010957231 0.021751361 0.030560244 -0.12847279 0.08947288 0.07855141
0.011376448 0.078697406 -0.009087451 0.15238611 0.020194912 -0.008614534 -0.09154319 0.0014903677
-0.066810004 -0.124451816 -0.12587436 0.06345521 0.09138559 0.016217126 0.017131714 0.10186404
0.08732146 -0.0023319148 0.015227447 0.05088958 0.1362192 0.011269557 0.039490934 0.07696636
-0.06218786 0.0076278057 0.07353615 0.004381103 -0.033907957 0.062294908 -0.13266028 0.056959577
0.092192724 0.046675943 -0.0052944114 -0.041635033 0.09859393 0.024578609 0.11059346 0.021636564
-0.05217469 0.060461815 0.115649946 0.072163664 0.014797686 -0.06602993 0.011925281 -0.070060454
0.073766634 -0.047943488 -0.080092624 -0.056398604 0.07051616 0.026523713 0.018055644 0.048115976
0.061924092 0.019289989 0.034005255 -0.09905308 0.049592227 0.043465775 -0.08655643 0.13231517
0.124863364 -0.0073928665 0.09356478 -0.043103565 0.08704496 0.02140879 0.07577413 0.14857331
0.0038843704 -0.13284515 0.14564118 -0.07772683 -0.079033874 0.049775958 0.11254484 0.058971524
0.08786531 -0.0133543145 0.021702887 -0.07181077 0.087462254 -0.04877732 -0.012516735 -0.023141459
-0.014580447 0.036792 0.07273908 0.09681298 -0.094447255 -0.029823946 -0.044607956 0.08478674
-0.0020741867 0.08771677 0.0048310882 -0.047275852 -0.040938247 0.061542142 -0.05760454 -0.028155496
0.009610142 0.07580141 -0.035308134 -0.011396393 0.06942335 -0.061910976 -0.01990454 0.002241072
0.069320716 0.000821784 0.05439124 -0.03328622 0.019342326 0.027900163 -0.020721693 0.044889443
-0.03665031 -0.076468386 -0.05847455 -0.09778695 0.05230296 -0.08239612 -0.09706227 -0.0032004241
-0.011340603 -0.08514004 -0.02566473 0.013935233 0.06283888 0.039353758 0.11777344 0.030147932
0.024405053 0.018234484 0.098578945 0.020510381 -0.048258357 -0.04813162 -0.034525894 0.017919732
-0.067282245 -0.108042926 0.010359243 0.00585593 0.031897947 -0.02382958 0.03249804 -0.059864093
-0.04818997 0.084774286 -0.06526252 0.05278027 -0.046558123 -0.045015264 0.023275893 -0.0009458664
-0.048115592 -0.06790635 -0.048911713 0.12016946 -0.03725262 0.06593998 -0.009182881 0.037200037
0.06545064 0.08433043 -0.034923803 -0.047528528 -0.045557506 -0.04716543 0.07383209 -0.054131895
-0.06533539 -0.053639792 -0.0912184 -0.0008602781 0.13453425 0.062410768 -0.06286289 -0.035445597
0.06756329 0.07023745 0.08855312 -0.090858005 -0.001420979 -0.07734894 -0.04126349 0.029412137
0.028888755 -0.050747816 -0.066912405 -0.04391846 -0.026307218 -0.030440748 -0.02488946 -0.011570479
-0.11576675 -0.046062242 0.044393197 -0.079483844 0.08177376 0.027165985 -0.01563815 -0.09626817
0.07982308 0.07000334 -0.0907384 0.06372411 0.023554465 0.0017401477 0.023944063 -0.022613328
0.082242064 -0.06133462 0.0100391405 -0.047395397 0.047672674 -0.016958639 0.007385656 -0.07119226

weight f4 [128, 128]
00000000: b470 553d 8b5a 92bd 4b1d 6c3c 4d10 98bc
00000010: c286 a43d 5ab1 c93d 9f52 343d 5dba 223d
00000020: 62ad 883d cb2c c03d b17b cb3c 7b86 713d
00000030: e236 59bb c92b c9bb 805c a63d 41bb 24bd
00000040: 950f 3e3d be04 6dbd 50f1 babc 1761 263d
00000050: 562a 9a3d 48c0 b33d 0bdd b83c 2231 87bd
00000060: 3bfc a3bd 72f3 163d 2af2 643d 7de7 7cbd
00000070: 95e8 13bd 566a 0f3d 54d3 173d c903 6abd
00000080: 8c34 5dbc 9d60 9c3d 11b7 88bd ab9f e33c
00000090: c1d8 98bd 6d9f 67bc 4f90 4d3d 1322 b9bd
000000a0: 14c3 67bd f87c a2bd ed7c 9b3d c579 c3bc
000000b0: 2f3a 1abd 771f 70bd da79 083c 7eb9 99bd
000000c0: cd3d 1f3d 299c b4bd 8497 abbc 86ce 503c
000000d0: 4c5b 3d3d 4537 97bd ece5 cb3b 55f5 a33d
000000e0: e049 e93c 3bf7 ce3d 377b 723d f91a b93d
000000f0: 84ef ec3c bb13 c93c 49f8 fc39 81c6 bebd
00000100: 1837 2dbd b0f5 7abd 337f f7bc 35c9 a3bd
00000110: f3b8 e5bc ae60 40bd f4a1 a73c b7cd 32bc
00000120: 41fd 0bbd 3c3b 633d 56df b8bb 44de 803c
00000130: 94e4 a7bc 8941 113c 6bff c1bc fe0c 55bc
00000140: 3320 913d b796 a4bb d098 80bd 5f6c eebd
00000150: ceed f6bc 1b93 1bbd 4eec 913b 7260 953d
00000160: da1b c6bd 0a1b 503c 700b 98bd f0f6 e2bc
00000170: 42dd 58bd 12fc a9bd 32bd 163d 12e7 a73c
00000180: 22a4 0bbd 341b 32bb eaf5 b33c d1ed 6c3d
00000190: 7411 1c3d 3192 b5bb c9b3 9b3b dafb 24bd
000001a0: f86e 12bd af51 923d d801 52bd 8c31 acbc
000001b0: b4ed febc 2374 d13c 1ef4 2f3c 5ece 3d3b
000001c0: d73c d63d bbca b2bd bdbc 85bd d1e6 4dbd
000001d0: ab10 023d 54b5 c83d e5a8 723d 8b21 bcbd
000001e0: b777 113d ab9c 533c a9ce 58bd 9c97 193a
000001f0: 3cfc 053e 4779 e03c 6af0 cabc cb4f 073d
00000200: 846d 5a3d 4b02 803d a34d 613d 4107 06bd
00000210: 7793 afbc 13af 7d3c 1fc6 82bc 5e81 5bbc
00000220: 456d 393d d72e 3d39 03e3 07bd 06a1 31bd
00000230: 41bc a83c cbdb 963d bcf2 ec3c ec09 093c
00000240: 5550 0e3d d62a 143d 2b8b 8abd 9126 d73b
00000250: 00c6 96bd 360a 573d c0ba 963d 267d 843d
00000260: 5b2e 7cbc 06a9 21bd 9df3 03bd cc38 55bc
00000270: 9c04 c2bc 6c1b f4bc 7a19 52bd f2de b73c
00000280: 688f 703d a0d8 69bd e378 6b3d 6333 b43d
00000290: 0c09 9f3d 054f 8a3d 7b11 c6bd 86f8 5e3d
000002a0: 4d28 d43d ad78 963b 597f b13d 45ab b4bc
000002b0: 4969 cb3c 0f42 9c3d 118f 703c c28f 0f3c
000002c0: 2934 e0bc 1870 a33c 0611 01bd 44ae 033d
000002d0: 780d 2a3d 961f 5dbc 3dc4 643d 82b7 edbb
000002e0: 2d09 ef3c 2804 abbd 5588 c23d 05b2 b4bd
000002f0: 9aa0 503d 37d5 5a3d 7d5f f7bc 0007 7a3d
00000300: b177 423c 8d2e 073b c74a c63b 2bb1 49bb
00000310: 556b b8bd 46db a73b 84a8 3a3d 7295 dbbc
00000320: d230 fc3c eddd 97bd 9a11 efbc 239d 64bd
00000330: cc17 38bb aae1 0b3e 8927 0abc a4b6 d73a
00000340: 2ae3 a13d 74cf ccbd b0db d53c 7978 97bc
00000350: 6c00 22bc a659 443d 3c58 363b d8d3 38bd
00000360: 55cb 0f3d 8a21 bcbc 5758 a3bc 78eb 12bd
00000370: e15f 7abd b01f cb3c 0a29 22bd a592 023d
00000380: 1f56 ab3d 26db 9639 fe19 e03d 78d5 623d
00000390: 5107 5ebd 2059 663d a11a c73d e0fc b93d
000003a0: 3470 6cbd 86cc 48bd 0eda b7bd 31c9 81bd
000003b0: b85d 623d 4c3b fa39 9f9d afbd 8abc 1cbc
000003c0: a749 0ebe 302c ca3d 4416 223c 1a66 383c
000003d0: 2f0c a03d d6d0 26bc 4f66 5c3c c0b3 4b3d
000003e0: fa84 833d 15ad 233c 3746 463d 3e1e 75bd
000003f0: 3d79 73bd e438 a83b 60ac 4b3d ccff acbd
0.052109435 -0.07146176 0.014411281 -0.01856246 0.080335155 0.0984828 0.044024106 0.03972851
0.06673695 0.093835436 0.024839254 0.05896614 -0.0033144285 -0.006139253 0.08123112 -0.04021764
0.04640158 -0.05786585 -0.022820145 0.040619936 0.07527606 0.08776909 0.022566339 -0.06601168
-0.080070935 0.03685326 0.05589501 -0.061744202 -0.03611048 0.03501352 0.037066773 -0.057132516
-0.013501298 0.07635615 -0.06675542 0.027786097 -0.074632175 -0.014137131 0.05018645 -0.09039702
-0.056582525 -0.07933992 0.07592187 -0.023861775 -0.037653144 -0.058623757 0.008329833 -0.07506083
0.038877297 -0.08818848 -0.020946272 0.0127445515 0.046229646 -0.07383589 0.006222477 0.08005778
0.02847761 0.10105749 0.059199538 0.09038348 0.028922804 0.024545541 0.00048250172 -0.09315205
-0.04228887 -0.061269462 -0.03021202 -0.079973616 -0.028042292 -0.0469672 0.020462967 -0.010913304
-0.03417707 0.055476412 -0.005641858 0.015730985 -0.020494737 0.008865722 -0.023681363 -0.013003586
0.0708622 -0.0050228494 -0.06279147 -0.11641764 -0.030142691 -0.037982088 0.0044532185 0.07293786
-0.09673281 0.012701759 -0.074240565 -0.02770564 -0.052945383 -0.08300032 0.036801524 0.020495925
-0.034092076 -0.002717686 0.021967847 0.057843987 0.038102582 -0.005541109 0.0047516567 -0.040279247
-0.03575036 0.07144486 -0.05127129 -0.02101972 -0.031119205 0.025568074 0.010739354 0.0028962116
0.10460823 -0.08730074 -0.065301396 -0.05026895 0.031754177 0.098002106 0.0592431 -0.09186085
0.03551456 0.0129157705 -0.05293146 0.00058590784 0.13084501 0.02740158 -0.024772841 0.03303508
0.0533271 0.06250437 0.05500568 -0.03272176 -0.021432621 0.0154836355 -0.015963612 -0.013397543
0.045270223 0.00018041894 -0.03317548 -0.043366455 0.020597579 0.07366141 0.028924339 0.008364182
0.03474458 0.036173664 -0.067648254 0.006565877 -0.07361984 0.052499972 0.073598385 0.06469183
-0.015391911 -0.039467834 -0.03221475 -0.01301403 -0.023683839 -0.029798232 -0.051293828 0.022445176
0.058730513 -0.057091355 0.057488333 0.08798864 0.077653974 0.06753353 -0.09671303 0.05443623
0.10359249 0.0045920224 0.08666868 -0.022054324 0.024830477 0.07629787 0.014682547 0.008762302
-0.027368622 0.019950911 -0.031510375 0.032148615 0.04151675 -0.0134963 0.05585121 -0.007254542
0.02917918 -0.08350402 0.094986595 -0.08823017 0.05093441 0.053425994 -0.0301969 0.061041832
0.011869357 0.0020627112 0.0060513946 -0.0030775766 -0.09004847 0.005122575 0.045570865 -0.02680466
0.030784998 -0.07415376 -0.029183198 -0.05581392 -0.0028090356 0.13660303 -0.0084322775 0.0016457629
0.07904656 -0.10000506 0.026105732 -0.018490063 -0.009887796 0.047937058 0.0027823588 -0.045123905
0.035106022 -0.022965211 -0.019939585 -0.03586909 -0.061126594 0.024795383 -0.03958992 0.031878132
0.08366036 0.00028773508 0.109424576 0.05537936 -0.054206196 0.05623734 0.09721876 0.09081435
-0.057724193 -0.049023174 -0.089771375 -0.06337202 0.05526516 0.00047727895 -0.08574986 -0.009566436
-0.13895284 0.09871709 0.009893004 0.011254812 0.07814824 -0.010181626 0.013452127 0.04973197
0.06421848 0.009989996 0.048406806 -0.059843294 -0.059441794 0.005133735 0.049724936 -0.08447227

weight f4 [8, 128]
00000000: 1c4e 1fbd e930 653d 338c 763d 5c89 173d
00000010: 3300 84ba 0041 0dbd dc5c dc3d 73c9 e33d
00000020: b241 6dbd ae1e 793d c22f 843d 3098 0cbd
00000030: 0cc9 69bc 5aef c53d 56d5 47bc d30a c8bd
00000040: 7aab 72bc 0c98 563c 8943 a3bd 2fe3 36bb
00000050: 5693 633d f23c 7e3c 4387 d63c eeea a03d
00000060: 49f0 633d 25a7 a3bd 85a6 5b3d 5b08 c7bd
00000070: ec62 2a3d 39f6 073d 5aa5 7ebd c55c 80bd
00000080: fd94 5b3d 1b62 933d e624 7a3d 08c3 cfbd
00000090: 3a9a 70bd c3b7 a9bd dda0 d3bc 80d9 b4b6
000000a0: d774 9abd 9147 323c 5d70 d9bd dab1 d43d
000000b0: 54c2 47bd 5e27 d6bc 3876 923d c4e6 bebd
000000c0: 1cb4 44b9 dfe2 0abd 396c a7bd bec8 9cbd
000000d0: 7b20 ea3d b8ff b63d 6ac3 b2bd 1ad1 053d
000000e0: 5e08 273d 2018 97bc d27e d53c 524c ea3d
000000f0: ea10 9f3d 1c04 8f3d 0f33 b7bd ad42 bbbd
00000100: dbbe 6e3d cee6 5bbd 79f6 80bd 8ee4 4dbd
00000110: 45e8 f7bc f5d5 97bc 5ecb 08bd e5c8 3b3d
00000120: 5077 24bd c231 f1bd 1b10 5e3d 3a60 2bbc
00000130: ab8e 223d 4987 b6bd 8afc 353d 2ff8 a93c
00000140: 2185 15bc a31f 5d3d f99d 913d e2af 91bd
00000150: 91cd 8b3d aba5 8abd 300a adbc 53bf e83d
00000160: 87f7 d73d cab8 693d 1eea cdbb f978 f33c
00000170: 8c00 28bd f20c c7bd 4229 7c3d ab59 8ebd
00000180: c397 81bd c3cb bf3d 2a1b e2bd 3b94 1cbc
00000190: bf27 d2bc 1933 e53c 41d5 173d 49c0 9d3d
000001a0: 5b0d 443d 93fe 94bd 2835 fbbd f138 ac3c
000001b0: b44d 25bd 99fc 8fbc abe9 533d 7226 73bd
000001c0: ab5c ca3c 738b 1c3e 2d14 ec3d 0f18 ce3c
000001d0: 12a3 b6bd 8c06 0cbe ec6f 593d af35 a43d
000001e0: bfb6 49bd 13c7 eebd 38ea 713d 9412 c83d
000001f0: f6c5 cbbc b1dc e1bd 6d7c 9bbc ca11 0e3d
00000200: 42d3 d9bc 344d d03d 8aea d73b 5d73 933d
00000210: 2951 6b3d 14a0 003d 2286 013b 4a49 d9bc
00000220: fae0 b9bd 4d90 c43d a912 1e3d 9f7f dabb
00000230: 7548 273c 05ee 593c 8338 173d 3ca1 bfbd
00000240: 7c4a 5abd 62b0 fe3d 4404 0a3d 50cf 9a3d
00000250: bbd9 b1b9 c292 1c3d 5122 cabc 7c34 863c
00000260: dee5 8fbc c604 173d 9240 50bd 2da9 303d
00000270: 011b b9bd 4690 803d b21f f9bc 5259 253c
00000280: 7137 e7bc 5849 273d 7061 dcbc e975 b63c
00000290: 645f 873c 17f1 cebd 4817 843d 96a8 b539
000002a0: 4c18 bfbd 8fbf 403d 25a2 b0bd 7d00 b03c
000002b0: d6e8 3abd 790c 973d 5cf3 ab3d 0d57 8bbd
000002c0: bda5 cb3d 7e43 aebd cfd9 24bd 9555 843d
000002d0: 1f9b ccbc 7c96 af3d 5fca aebd e89c 9d3d
000002e0: 62e6 e13d d341 493c d58d cabd e720 193d
000002f0: b6f2 1abc c99a 34bd e8bb 553c a54a 08bd
00000300: 07ab 36bd 1564 d63d dc71 b3bd 4529 2dbd
00000310: 30a0 f9bd 275e 9bbd e4be 813d 9851 a8bd
00000320: 17b9 9b3d ad20 e9bd e4e6 7ebd d466 273d
00000330: 2a34 9fbd 1b3a d13c 86bc e0bc 2cab 19bd
00000340: f64a 143d 41f8 33bc 2d2e d33d b089 ac3d
00000350: 726b a8bc caf8 20bd d914 24bd aaf9 1c3d
00000360: 10fc 963d 14a6 83bb 21a3 673d deba c1bc
00000370: 77a6 823b 87a3 813d 1822 823d 0437 e03c
00000380: a52a ec3c f6df 723d b1f6 81bb d1ec b63d
00000390: ac8b d2ba 49d4 9dbd f4be cc3d ab3c c23d
000003a0: 4c9b 7abb cb26 b7ba 089c afbd b5fc 09bd
000003b0: 09ae 2e3d 70ee 613d baa3 31bc 5e65 abbd
000003c0: 9ec2 30bd 5174 d93d c03c e83d e6e6 8abd
000003d0: 2084 75bd 1381 f5bd 6f66 743d 7bc6 c53d
000003e0: 112a b0bd 2852 5bba d608 9739 8bbd e03d
000003f0: 005a 03bd d5fe 82bd 94a8 a03d 5da8 e1bc
-0.03889285 0.055954847 0.0601923 0.03699623 -0.001007086 -0.034485817 0.10759899 0.11122408
-0.05792398 0.060820274 0.064544216 -0.034324825 -0.014269125 0.09664793 -0.012196859 -0.097676896
-0.014811391 0.013097774 -0.07971866 -0.0027906408 0.055560432 0.01551746 0.026187545 0.07857309
0.055649076 -0.07990865 0.053625602 -0.097183906 0.041598246 0.0331938 -0.06216941 -0.062676944
0.053608883 0.071964465 0.061070345 -0.10144621 -0.058740832 -0.08287003 -0.025833542 -5.3897384e-06
-0.07541817 0.010881321 -0.10617135 0.10385485 -0.04876931 -0.026141819 0.07151455 -0.09321359
-0.00018759113 -0.033907767 -0.08174939 -0.07655476 0.114319764 0.08935493 -0.087286785 0.032670118
0.040779464 -0.01844412 0.02606145 0.11440338 0.07766898 0.06983206 -0.089452855 -0.09143577
0.058287483 -0.05368691 -0.06297011 -0.050266795 -0.030262122 -0.01853464 -0.03339707 0.045845885
-0.040152848 -0.11777069 0.054214578 -0.010459954 0.03968684 -0.08912522 0.044430293 0.020748226
-0.009125979 0.05398525 0.07110209 -0.07113625 0.06826318 -0.0676988 -0.021123022 0.11364617
0.10545259 0.057060994 -0.0062840125 0.02972077 -0.041016147 -0.09719266 0.061562784 -0.069506966
-0.063277744 0.09365036 -0.110403374 -0.009556825 -0.025653718 0.027978467 0.03706861 0.07702691
0.0478643 -0.07275119 -0.12265998 0.021023246 -0.040357307 -0.017576503 0.051736515 -0.059362836
0.02470239 0.1528757 0.11527286 0.025157956 -0.08917822 -0.13674372 0.053085253 0.08018052
-0.049246546 -0.11659064 0.05906126 0.097691685 -0.024874669 -0.11028422 -0.01898023 0.034684934
-0.026589993 0.10170975 0.0065892385 0.07199738 0.057450447 0.031402662 0.0019763787 -0.026524205
-0.09076114 0.09597836 0.038592014 -0.0066680457 0.010210146 0.013301377 0.03691913 -0.09356925
-0.05329369 0.12435986 0.033695474 0.07559073 -0.00033922293 0.038225897 -0.024674566 0.016382448
-0.017565664 0.036869787 -0.05084283 0.04313009 -0.09038354 0.06277518 -0.030410621 0.010092096
-0.028224679 0.04084143 -0.02690193 0.02227302 0.016524978 -0.10104578 0.06449753 0.00034648617
-0.09330806 0.047057685 -0.086246766 0.021484608 -0.045632206 0.07375426 0.083960265 -0.06803713
0.099437214 -0.08508967 -0.04024678 0.06461636 -0.024976311 0.085736245 -0.08534693 0.07695943
0.1103027 0.01228376 -0.098903336 0.037384894 -0.009457281 -0.044092927 0.013045289 -0.03327431
-0.044596698 0.10468308 -0.08761951 -0.042275686 -0.121887565 -0.075863175 0.063352376 -0.08218688
0.076036625 -0.113831855 -0.062231913 0.04086955 -0.077736214 0.025540402 -0.027433645 -0.037516758
0.0362043 -0.010984481 0.10311542 0.08424699 -0.020559046 -0.039299764 -0.040058944 0.038324036
0.07372296 -0.004017601 0.056552056 -0.023648676 0.0039871293 0.063300185 0.06354159 0.027369983
0.028828928 0.059295617 -0.0039661755 0.08931888 -0.0016063354 -0.07706506 0.09997359 0.09484228
-0.0038239537 -0.0013973353 -0.085746825 -0.033688266 0.04264644 0.055159032 -0.010842258 -0.08368944
-0.04315435 0.10617889 0.11339712 -0.06782322 -0.059940457 -0.119875096 0.059668 0.09656998
-0.086017735 -0.0008366429 0.00028807548 0.109736525 -0.032068253 -0.063962616 0.07844654 -0.027546102

weight f4 [1, 8]
00000000: aa58 b7be 8f97 fabd d930 cebd 7484 c5be
00000010: 185e b3be 84db 79be 955e a8be adf1 3ebe
-0.35809833 -0.12235939 -0.10067911 -0.38577616 -0.35032725 -0.24400145 -0.3288466 -0.1864688
